<?xml version="1.0" ?>
<net batch="1" name="person-detection-action-recognition-0006" version="6">
	<layers>
		<layer id="0" name="input" precision="FP32" type="Input">
			<output>
				<port id="0">
					<dim>1</dim>
					<dim>3</dim>
					<dim>400</dim>
					<dim>680</dim>
				</port>
			</output>
		</layer>
		<layer id="1" name="ActionNet/twinnet/shared/init_norm/batchnorm/mul_1/FusedScaleShift_" precision="FP32" type="ScaleShift">
			<input>
				<port id="0">
					<dim>1</dim>
					<dim>3</dim>
					<dim>400</dim>
					<dim>680</dim>
				</port>
			</input>
			<output>
				<port id="3">
					<dim>1</dim>
					<dim>3</dim>
					<dim>400</dim>
					<dim>680</dim>
				</port>
			</output>
			<blobs>
				<weights offset="0" size="12"/>
				<biases offset="12" size="12"/>
			</blobs>
		</layer>
		<layer id="2" name="ActionNet/twinnet/shared/init_block/dim_inc_conv/Conv2D" precision="FP32" type="Convolution">
			<data auto_pad="same_upper" dilations="1,1" group="1" kernel="3,3" output="32" pads_begin="0,0" pads_end="1,1" strides="2,2"/>
			<input>
				<port id="0">
					<dim>1</dim>
					<dim>3</dim>
					<dim>400</dim>
					<dim>680</dim>
				</port>
			</input>
			<output>
				<port id="3">
					<dim>1</dim>
					<dim>32</dim>
					<dim>200</dim>
					<dim>340</dim>
				</port>
			</output>
			<blobs>
				<weights offset="24" size="3456"/>
				<biases offset="3480" size="128"/>
			</blobs>
		</layer>
		<layer id="3" name="ActionNet/twinnet/shared/init_block/dim_inc_conv/ActionNet/twinnet/shared/init_block/dim_inc_conv_fn_activation" precision="FP32" type="ReLU">
			<data negative_slope="0.10000000149011612"/>
			<input>
				<port id="0">
					<dim>1</dim>
					<dim>32</dim>
					<dim>200</dim>
					<dim>340</dim>
				</port>
			</input>
			<output>
				<port id="1">
					<dim>1</dim>
					<dim>32</dim>
					<dim>200</dim>
					<dim>340</dim>
				</port>
			</output>
		</layer>
		<layer id="4" name="ActionNet/twinnet/shared/bottleneck1_1/dim_red/Conv2D" precision="FP32" type="Convolution">
			<data auto_pad="same_upper" dilations="1,1" group="1" kernel="1,1" output="8" pads_begin="0,0" pads_end="0,0" strides="1,1"/>
			<input>
				<port id="0">
					<dim>1</dim>
					<dim>32</dim>
					<dim>200</dim>
					<dim>340</dim>
				</port>
			</input>
			<output>
				<port id="3">
					<dim>1</dim>
					<dim>8</dim>
					<dim>200</dim>
					<dim>340</dim>
				</port>
			</output>
			<blobs>
				<weights offset="3608" size="1024"/>
				<biases offset="4632" size="32"/>
			</blobs>
		</layer>
		<layer id="5" name="ActionNet/twinnet/shared/bottleneck1_1/dim_red/ActionNet/twinnet/shared/bottleneck1_1/dim_red_fn_activation" precision="FP32" type="ReLU">
			<data negative_slope="0.10000000149011612"/>
			<input>
				<port id="0">
					<dim>1</dim>
					<dim>8</dim>
					<dim>200</dim>
					<dim>340</dim>
				</port>
			</input>
			<output>
				<port id="1">
					<dim>1</dim>
					<dim>8</dim>
					<dim>200</dim>
					<dim>340</dim>
				</port>
			</output>
		</layer>
		<layer id="6" name="ActionNet/twinnet/shared/bottleneck1_1/inner_conv/depthwise" precision="FP32" type="Convolution">
			<data auto_pad="same_upper" dilations="1,1" group="8" kernel="3,3" output="8" pads_begin="1,1" pads_end="1,1" strides="1,1"/>
			<input>
				<port id="0">
					<dim>1</dim>
					<dim>8</dim>
					<dim>200</dim>
					<dim>340</dim>
				</port>
			</input>
			<output>
				<port id="3">
					<dim>1</dim>
					<dim>8</dim>
					<dim>200</dim>
					<dim>340</dim>
				</port>
			</output>
			<blobs>
				<weights offset="4664" size="288"/>
				<biases offset="4952" size="32"/>
			</blobs>
		</layer>
		<layer id="7" name="ActionNet/twinnet/shared/bottleneck1_1/inner_conv/ActionNet/twinnet/shared/bottleneck1_1/inner_conv_fn_activation" precision="FP32" type="ReLU">
			<data negative_slope="0.10000000149011612"/>
			<input>
				<port id="0">
					<dim>1</dim>
					<dim>8</dim>
					<dim>200</dim>
					<dim>340</dim>
				</port>
			</input>
			<output>
				<port id="1">
					<dim>1</dim>
					<dim>8</dim>
					<dim>200</dim>
					<dim>340</dim>
				</port>
			</output>
		</layer>
		<layer id="8" name="ActionNet/twinnet/shared/bottleneck1_1/dim_inc/Conv2D" precision="FP32" type="Convolution">
			<data auto_pad="same_upper" dilations="1,1" group="1" kernel="1,1" output="32" pads_begin="0,0" pads_end="0,0" strides="1,1"/>
			<input>
				<port id="0">
					<dim>1</dim>
					<dim>8</dim>
					<dim>200</dim>
					<dim>340</dim>
				</port>
			</input>
			<output>
				<port id="3">
					<dim>1</dim>
					<dim>32</dim>
					<dim>200</dim>
					<dim>340</dim>
				</port>
			</output>
			<blobs>
				<weights offset="4984" size="1024"/>
				<biases offset="6008" size="128"/>
			</blobs>
		</layer>
		<layer id="9" name="ActionNet/twinnet/shared/bottleneck1_1/Add" precision="FP32" type="Eltwise">
			<data operation="sum"/>
			<input>
				<port id="0">
					<dim>1</dim>
					<dim>32</dim>
					<dim>200</dim>
					<dim>340</dim>
				</port>
				<port id="1">
					<dim>1</dim>
					<dim>32</dim>
					<dim>200</dim>
					<dim>340</dim>
				</port>
			</input>
			<output>
				<port id="2">
					<dim>1</dim>
					<dim>32</dim>
					<dim>200</dim>
					<dim>340</dim>
				</port>
			</output>
		</layer>
		<layer id="10" name="ActionNet/twinnet/shared/bottleneck1_1/LeakyRelu" precision="FP32" type="ReLU">
			<data negative_slope="0.10000000149011612"/>
			<input>
				<port id="0">
					<dim>1</dim>
					<dim>32</dim>
					<dim>200</dim>
					<dim>340</dim>
				</port>
			</input>
			<output>
				<port id="1">
					<dim>1</dim>
					<dim>32</dim>
					<dim>200</dim>
					<dim>340</dim>
				</port>
			</output>
		</layer>
		<layer id="11" name="ActionNet/twinnet/shared/bottleneck1_2/dim_red/Conv2D" precision="FP32" type="Convolution">
			<data auto_pad="same_upper" dilations="1,1" group="1" kernel="1,1" output="8" pads_begin="0,0" pads_end="0,0" strides="1,1"/>
			<input>
				<port id="0">
					<dim>1</dim>
					<dim>32</dim>
					<dim>200</dim>
					<dim>340</dim>
				</port>
			</input>
			<output>
				<port id="3">
					<dim>1</dim>
					<dim>8</dim>
					<dim>200</dim>
					<dim>340</dim>
				</port>
			</output>
			<blobs>
				<weights offset="6136" size="1024"/>
				<biases offset="7160" size="32"/>
			</blobs>
		</layer>
		<layer id="12" name="ActionNet/twinnet/shared/bottleneck1_2/dim_red/ActionNet/twinnet/shared/bottleneck1_2/dim_red_fn_activation" precision="FP32" type="ReLU">
			<data negative_slope="0.10000000149011612"/>
			<input>
				<port id="0">
					<dim>1</dim>
					<dim>8</dim>
					<dim>200</dim>
					<dim>340</dim>
				</port>
			</input>
			<output>
				<port id="1">
					<dim>1</dim>
					<dim>8</dim>
					<dim>200</dim>
					<dim>340</dim>
				</port>
			</output>
		</layer>
		<layer id="13" name="ActionNet/twinnet/shared/bottleneck1_2/inner_conv/depthwise" precision="FP32" type="Convolution">
			<data auto_pad="same_upper" dilations="1,1" group="8" kernel="3,3" output="8" pads_begin="1,1" pads_end="1,1" strides="1,1"/>
			<input>
				<port id="0">
					<dim>1</dim>
					<dim>8</dim>
					<dim>200</dim>
					<dim>340</dim>
				</port>
			</input>
			<output>
				<port id="3">
					<dim>1</dim>
					<dim>8</dim>
					<dim>200</dim>
					<dim>340</dim>
				</port>
			</output>
			<blobs>
				<weights offset="7192" size="288"/>
				<biases offset="7480" size="32"/>
			</blobs>
		</layer>
		<layer id="14" name="ActionNet/twinnet/shared/bottleneck1_2/inner_conv/ActionNet/twinnet/shared/bottleneck1_2/inner_conv_fn_activation" precision="FP32" type="ReLU">
			<data negative_slope="0.10000000149011612"/>
			<input>
				<port id="0">
					<dim>1</dim>
					<dim>8</dim>
					<dim>200</dim>
					<dim>340</dim>
				</port>
			</input>
			<output>
				<port id="1">
					<dim>1</dim>
					<dim>8</dim>
					<dim>200</dim>
					<dim>340</dim>
				</port>
			</output>
		</layer>
		<layer id="15" name="ActionNet/twinnet/shared/bottleneck1_2/dim_inc/Conv2D" precision="FP32" type="Convolution">
			<data auto_pad="same_upper" dilations="1,1" group="1" kernel="1,1" output="32" pads_begin="0,0" pads_end="0,0" strides="1,1"/>
			<input>
				<port id="0">
					<dim>1</dim>
					<dim>8</dim>
					<dim>200</dim>
					<dim>340</dim>
				</port>
			</input>
			<output>
				<port id="3">
					<dim>1</dim>
					<dim>32</dim>
					<dim>200</dim>
					<dim>340</dim>
				</port>
			</output>
			<blobs>
				<weights offset="7512" size="1024"/>
				<biases offset="8536" size="128"/>
			</blobs>
		</layer>
		<layer id="16" name="ActionNet/twinnet/shared/bottleneck1_2/Add" precision="FP32" type="Eltwise">
			<data operation="sum"/>
			<input>
				<port id="0">
					<dim>1</dim>
					<dim>32</dim>
					<dim>200</dim>
					<dim>340</dim>
				</port>
				<port id="1">
					<dim>1</dim>
					<dim>32</dim>
					<dim>200</dim>
					<dim>340</dim>
				</port>
			</input>
			<output>
				<port id="2">
					<dim>1</dim>
					<dim>32</dim>
					<dim>200</dim>
					<dim>340</dim>
				</port>
			</output>
		</layer>
		<layer id="17" name="ActionNet/twinnet/shared/bottleneck1_2/LeakyRelu" precision="FP32" type="ReLU">
			<data negative_slope="0.10000000149011612"/>
			<input>
				<port id="0">
					<dim>1</dim>
					<dim>32</dim>
					<dim>200</dim>
					<dim>340</dim>
				</port>
			</input>
			<output>
				<port id="1">
					<dim>1</dim>
					<dim>32</dim>
					<dim>200</dim>
					<dim>340</dim>
				</port>
			</output>
		</layer>
		<layer id="18" name="ActionNet/twinnet/shared/bottleneck1_3/dim_red/Conv2D" precision="FP32" type="Convolution">
			<data auto_pad="same_upper" dilations="1,1" group="1" kernel="1,1" output="8" pads_begin="0,0" pads_end="0,0" strides="1,1"/>
			<input>
				<port id="0">
					<dim>1</dim>
					<dim>32</dim>
					<dim>200</dim>
					<dim>340</dim>
				</port>
			</input>
			<output>
				<port id="3">
					<dim>1</dim>
					<dim>8</dim>
					<dim>200</dim>
					<dim>340</dim>
				</port>
			</output>
			<blobs>
				<weights offset="8664" size="1024"/>
				<biases offset="9688" size="32"/>
			</blobs>
		</layer>
		<layer id="19" name="ActionNet/twinnet/shared/bottleneck1_3/dim_red/ActionNet/twinnet/shared/bottleneck1_3/dim_red_fn_activation" precision="FP32" type="ReLU">
			<data negative_slope="0.10000000149011612"/>
			<input>
				<port id="0">
					<dim>1</dim>
					<dim>8</dim>
					<dim>200</dim>
					<dim>340</dim>
				</port>
			</input>
			<output>
				<port id="1">
					<dim>1</dim>
					<dim>8</dim>
					<dim>200</dim>
					<dim>340</dim>
				</port>
			</output>
		</layer>
		<layer id="20" name="ActionNet/twinnet/shared/bottleneck1_3/inner_conv/depthwise" precision="FP32" type="Convolution">
			<data auto_pad="same_upper" dilations="1,1" group="8" kernel="3,3" output="8" pads_begin="1,1" pads_end="1,1" strides="1,1"/>
			<input>
				<port id="0">
					<dim>1</dim>
					<dim>8</dim>
					<dim>200</dim>
					<dim>340</dim>
				</port>
			</input>
			<output>
				<port id="3">
					<dim>1</dim>
					<dim>8</dim>
					<dim>200</dim>
					<dim>340</dim>
				</port>
			</output>
			<blobs>
				<weights offset="9720" size="288"/>
				<biases offset="10008" size="32"/>
			</blobs>
		</layer>
		<layer id="21" name="ActionNet/twinnet/shared/bottleneck1_3/inner_conv/ActionNet/twinnet/shared/bottleneck1_3/inner_conv_fn_activation" precision="FP32" type="ReLU">
			<data negative_slope="0.10000000149011612"/>
			<input>
				<port id="0">
					<dim>1</dim>
					<dim>8</dim>
					<dim>200</dim>
					<dim>340</dim>
				</port>
			</input>
			<output>
				<port id="1">
					<dim>1</dim>
					<dim>8</dim>
					<dim>200</dim>
					<dim>340</dim>
				</port>
			</output>
		</layer>
		<layer id="22" name="ActionNet/twinnet/shared/bottleneck1_3/dim_inc/Conv2D" precision="FP32" type="Convolution">
			<data auto_pad="same_upper" dilations="1,1" group="1" kernel="1,1" output="32" pads_begin="0,0" pads_end="0,0" strides="1,1"/>
			<input>
				<port id="0">
					<dim>1</dim>
					<dim>8</dim>
					<dim>200</dim>
					<dim>340</dim>
				</port>
			</input>
			<output>
				<port id="3">
					<dim>1</dim>
					<dim>32</dim>
					<dim>200</dim>
					<dim>340</dim>
				</port>
			</output>
			<blobs>
				<weights offset="10040" size="1024"/>
				<biases offset="11064" size="128"/>
			</blobs>
		</layer>
		<layer id="23" name="ActionNet/twinnet/shared/bottleneck1_3/Add" precision="FP32" type="Eltwise">
			<data operation="sum"/>
			<input>
				<port id="0">
					<dim>1</dim>
					<dim>32</dim>
					<dim>200</dim>
					<dim>340</dim>
				</port>
				<port id="1">
					<dim>1</dim>
					<dim>32</dim>
					<dim>200</dim>
					<dim>340</dim>
				</port>
			</input>
			<output>
				<port id="2">
					<dim>1</dim>
					<dim>32</dim>
					<dim>200</dim>
					<dim>340</dim>
				</port>
			</output>
		</layer>
		<layer id="24" name="ActionNet/twinnet/shared/bottleneck1_3/LeakyRelu" precision="FP32" type="ReLU">
			<data negative_slope="0.10000000149011612"/>
			<input>
				<port id="0">
					<dim>1</dim>
					<dim>32</dim>
					<dim>200</dim>
					<dim>340</dim>
				</port>
			</input>
			<output>
				<port id="1">
					<dim>1</dim>
					<dim>32</dim>
					<dim>200</dim>
					<dim>340</dim>
				</port>
			</output>
		</layer>
		<layer id="25" name="ActionNet/twinnet/shared/bottleneck1_4/dim_red/Conv2D" precision="FP32" type="Convolution">
			<data auto_pad="same_upper" dilations="1,1" group="1" kernel="1,1" output="8" pads_begin="0,0" pads_end="0,0" strides="1,1"/>
			<input>
				<port id="0">
					<dim>1</dim>
					<dim>32</dim>
					<dim>200</dim>
					<dim>340</dim>
				</port>
			</input>
			<output>
				<port id="3">
					<dim>1</dim>
					<dim>8</dim>
					<dim>200</dim>
					<dim>340</dim>
				</port>
			</output>
			<blobs>
				<weights offset="11192" size="1024"/>
				<biases offset="12216" size="32"/>
			</blobs>
		</layer>
		<layer id="26" name="ActionNet/twinnet/shared/bottleneck1_4/dim_red/ActionNet/twinnet/shared/bottleneck1_4/dim_red_fn_activation" precision="FP32" type="ReLU">
			<data negative_slope="0.10000000149011612"/>
			<input>
				<port id="0">
					<dim>1</dim>
					<dim>8</dim>
					<dim>200</dim>
					<dim>340</dim>
				</port>
			</input>
			<output>
				<port id="1">
					<dim>1</dim>
					<dim>8</dim>
					<dim>200</dim>
					<dim>340</dim>
				</port>
			</output>
		</layer>
		<layer id="27" name="ActionNet/twinnet/shared/bottleneck1_4/inner_conv/depthwise" precision="FP32" type="Convolution">
			<data auto_pad="same_upper" dilations="1,1" group="8" kernel="3,3" output="8" pads_begin="1,1" pads_end="1,1" strides="1,1"/>
			<input>
				<port id="0">
					<dim>1</dim>
					<dim>8</dim>
					<dim>200</dim>
					<dim>340</dim>
				</port>
			</input>
			<output>
				<port id="3">
					<dim>1</dim>
					<dim>8</dim>
					<dim>200</dim>
					<dim>340</dim>
				</port>
			</output>
			<blobs>
				<weights offset="12248" size="288"/>
				<biases offset="12536" size="32"/>
			</blobs>
		</layer>
		<layer id="28" name="ActionNet/twinnet/shared/bottleneck1_4/inner_conv/ActionNet/twinnet/shared/bottleneck1_4/inner_conv_fn_activation" precision="FP32" type="ReLU">
			<data negative_slope="0.10000000149011612"/>
			<input>
				<port id="0">
					<dim>1</dim>
					<dim>8</dim>
					<dim>200</dim>
					<dim>340</dim>
				</port>
			</input>
			<output>
				<port id="1">
					<dim>1</dim>
					<dim>8</dim>
					<dim>200</dim>
					<dim>340</dim>
				</port>
			</output>
		</layer>
		<layer id="29" name="ActionNet/twinnet/shared/bottleneck1_4/dim_inc/Conv2D" precision="FP32" type="Convolution">
			<data auto_pad="same_upper" dilations="1,1" group="1" kernel="1,1" output="32" pads_begin="0,0" pads_end="0,0" strides="1,1"/>
			<input>
				<port id="0">
					<dim>1</dim>
					<dim>8</dim>
					<dim>200</dim>
					<dim>340</dim>
				</port>
			</input>
			<output>
				<port id="3">
					<dim>1</dim>
					<dim>32</dim>
					<dim>200</dim>
					<dim>340</dim>
				</port>
			</output>
			<blobs>
				<weights offset="12568" size="1024"/>
				<biases offset="13592" size="128"/>
			</blobs>
		</layer>
		<layer id="30" name="ActionNet/twinnet/shared/bottleneck1_4/Add" precision="FP32" type="Eltwise">
			<data operation="sum"/>
			<input>
				<port id="0">
					<dim>1</dim>
					<dim>32</dim>
					<dim>200</dim>
					<dim>340</dim>
				</port>
				<port id="1">
					<dim>1</dim>
					<dim>32</dim>
					<dim>200</dim>
					<dim>340</dim>
				</port>
			</input>
			<output>
				<port id="2">
					<dim>1</dim>
					<dim>32</dim>
					<dim>200</dim>
					<dim>340</dim>
				</port>
			</output>
		</layer>
		<layer id="31" name="ActionNet/twinnet/shared/bottleneck1_4/LeakyRelu" precision="FP32" type="ReLU">
			<data negative_slope="0.10000000149011612"/>
			<input>
				<port id="0">
					<dim>1</dim>
					<dim>32</dim>
					<dim>200</dim>
					<dim>340</dim>
				</port>
			</input>
			<output>
				<port id="1">
					<dim>1</dim>
					<dim>32</dim>
					<dim>200</dim>
					<dim>340</dim>
				</port>
			</output>
		</layer>
		<layer id="32" name="ActionNet/twinnet/shared/bottleneck2_0/dim_red/Conv2D" precision="FP32" type="Convolution">
			<data auto_pad="same_upper" dilations="1,1" group="1" kernel="1,1" output="16" pads_begin="0,0" pads_end="0,0" strides="1,1"/>
			<input>
				<port id="0">
					<dim>1</dim>
					<dim>32</dim>
					<dim>200</dim>
					<dim>340</dim>
				</port>
			</input>
			<output>
				<port id="3">
					<dim>1</dim>
					<dim>16</dim>
					<dim>200</dim>
					<dim>340</dim>
				</port>
			</output>
			<blobs>
				<weights offset="13720" size="2048"/>
				<biases offset="15768" size="64"/>
			</blobs>
		</layer>
		<layer id="33" name="ActionNet/twinnet/shared/bottleneck2_0/dim_red/ActionNet/twinnet/shared/bottleneck2_0/dim_red_fn_activation" precision="FP32" type="ReLU">
			<data negative_slope="0.10000000149011612"/>
			<input>
				<port id="0">
					<dim>1</dim>
					<dim>16</dim>
					<dim>200</dim>
					<dim>340</dim>
				</port>
			</input>
			<output>
				<port id="1">
					<dim>1</dim>
					<dim>16</dim>
					<dim>200</dim>
					<dim>340</dim>
				</port>
			</output>
		</layer>
		<layer id="34" name="ActionNet/twinnet/shared/bottleneck2_0/inner_conv/depthwise" precision="FP32" type="Convolution">
			<data auto_pad="same_upper" dilations="1,1" group="16" kernel="3,3" output="16" pads_begin="0,0" pads_end="1,1" strides="2,2"/>
			<input>
				<port id="0">
					<dim>1</dim>
					<dim>16</dim>
					<dim>200</dim>
					<dim>340</dim>
				</port>
			</input>
			<output>
				<port id="3">
					<dim>1</dim>
					<dim>16</dim>
					<dim>100</dim>
					<dim>170</dim>
				</port>
			</output>
			<blobs>
				<weights offset="15832" size="576"/>
				<biases offset="16408" size="64"/>
			</blobs>
		</layer>
		<layer id="35" name="ActionNet/twinnet/shared/bottleneck2_0/inner_conv/ActionNet/twinnet/shared/bottleneck2_0/inner_conv_fn_activation" precision="FP32" type="ReLU">
			<data negative_slope="0.10000000149011612"/>
			<input>
				<port id="0">
					<dim>1</dim>
					<dim>16</dim>
					<dim>100</dim>
					<dim>170</dim>
				</port>
			</input>
			<output>
				<port id="1">
					<dim>1</dim>
					<dim>16</dim>
					<dim>100</dim>
					<dim>170</dim>
				</port>
			</output>
		</layer>
		<layer id="36" name="ActionNet/twinnet/shared/bottleneck2_0/dim_inc/Conv2D" precision="FP32" type="Convolution">
			<data auto_pad="same_upper" dilations="1,1" group="1" kernel="1,1" output="64" pads_begin="0,0" pads_end="0,0" strides="1,1"/>
			<input>
				<port id="0">
					<dim>1</dim>
					<dim>16</dim>
					<dim>100</dim>
					<dim>170</dim>
				</port>
			</input>
			<output>
				<port id="3">
					<dim>1</dim>
					<dim>64</dim>
					<dim>100</dim>
					<dim>170</dim>
				</port>
			</output>
			<blobs>
				<weights offset="16472" size="4096"/>
				<biases offset="20568" size="256"/>
			</blobs>
		</layer>
		<layer id="37" name="ActionNet/twinnet/shared/bottleneck2_0/max_pool/MaxPool" precision="FP32" type="Pooling">
			<data auto_pad="same_upper" exclude-pad="true" kernel="2,2" pads_begin="0,0" pads_end="0,0" pool-method="max" strides="2,2"/>
			<input>
				<port id="0">
					<dim>1</dim>
					<dim>32</dim>
					<dim>200</dim>
					<dim>340</dim>
				</port>
			</input>
			<output>
				<port id="1">
					<dim>1</dim>
					<dim>32</dim>
					<dim>100</dim>
					<dim>170</dim>
				</port>
			</output>
		</layer>
		<layer id="38" name="ActionNet/twinnet/shared/bottleneck2_0/skip_conv/Conv2D" precision="FP32" type="Convolution">
			<data auto_pad="same_upper" dilations="1,1" group="1" kernel="1,1" output="64" pads_begin="0,0" pads_end="0,0" strides="1,1"/>
			<input>
				<port id="0">
					<dim>1</dim>
					<dim>32</dim>
					<dim>100</dim>
					<dim>170</dim>
				</port>
			</input>
			<output>
				<port id="3">
					<dim>1</dim>
					<dim>64</dim>
					<dim>100</dim>
					<dim>170</dim>
				</port>
			</output>
			<blobs>
				<weights offset="20824" size="8192"/>
				<biases offset="29016" size="256"/>
			</blobs>
		</layer>
		<layer id="39" name="ActionNet/twinnet/shared/bottleneck2_0/Add" precision="FP32" type="Eltwise">
			<data operation="sum"/>
			<input>
				<port id="0">
					<dim>1</dim>
					<dim>64</dim>
					<dim>100</dim>
					<dim>170</dim>
				</port>
				<port id="1">
					<dim>1</dim>
					<dim>64</dim>
					<dim>100</dim>
					<dim>170</dim>
				</port>
			</input>
			<output>
				<port id="2">
					<dim>1</dim>
					<dim>64</dim>
					<dim>100</dim>
					<dim>170</dim>
				</port>
			</output>
		</layer>
		<layer id="40" name="ActionNet/twinnet/shared/bottleneck2_0/LeakyRelu" precision="FP32" type="ReLU">
			<data negative_slope="0.10000000149011612"/>
			<input>
				<port id="0">
					<dim>1</dim>
					<dim>64</dim>
					<dim>100</dim>
					<dim>170</dim>
				</port>
			</input>
			<output>
				<port id="1">
					<dim>1</dim>
					<dim>64</dim>
					<dim>100</dim>
					<dim>170</dim>
				</port>
			</output>
		</layer>
		<layer id="41" name="ActionNet/twinnet/shared/bottleneck2_1/dim_red/Conv2D" precision="FP32" type="Convolution">
			<data auto_pad="same_upper" dilations="1,1" group="1" kernel="1,1" output="16" pads_begin="0,0" pads_end="0,0" strides="1,1"/>
			<input>
				<port id="0">
					<dim>1</dim>
					<dim>64</dim>
					<dim>100</dim>
					<dim>170</dim>
				</port>
			</input>
			<output>
				<port id="3">
					<dim>1</dim>
					<dim>16</dim>
					<dim>100</dim>
					<dim>170</dim>
				</port>
			</output>
			<blobs>
				<weights offset="29272" size="4096"/>
				<biases offset="33368" size="64"/>
			</blobs>
		</layer>
		<layer id="42" name="ActionNet/twinnet/shared/bottleneck2_1/dim_red/ActionNet/twinnet/shared/bottleneck2_1/dim_red_fn_activation" precision="FP32" type="ReLU">
			<data negative_slope="0.10000000149011612"/>
			<input>
				<port id="0">
					<dim>1</dim>
					<dim>16</dim>
					<dim>100</dim>
					<dim>170</dim>
				</port>
			</input>
			<output>
				<port id="1">
					<dim>1</dim>
					<dim>16</dim>
					<dim>100</dim>
					<dim>170</dim>
				</port>
			</output>
		</layer>
		<layer id="43" name="ActionNet/twinnet/shared/bottleneck2_1/inner_conv/depthwise" precision="FP32" type="Convolution">
			<data auto_pad="same_upper" dilations="1,1" group="16" kernel="3,3" output="16" pads_begin="1,1" pads_end="1,1" strides="1,1"/>
			<input>
				<port id="0">
					<dim>1</dim>
					<dim>16</dim>
					<dim>100</dim>
					<dim>170</dim>
				</port>
			</input>
			<output>
				<port id="3">
					<dim>1</dim>
					<dim>16</dim>
					<dim>100</dim>
					<dim>170</dim>
				</port>
			</output>
			<blobs>
				<weights offset="33432" size="576"/>
				<biases offset="34008" size="64"/>
			</blobs>
		</layer>
		<layer id="44" name="ActionNet/twinnet/shared/bottleneck2_1/inner_conv/ActionNet/twinnet/shared/bottleneck2_1/inner_conv_fn_activation" precision="FP32" type="ReLU">
			<data negative_slope="0.10000000149011612"/>
			<input>
				<port id="0">
					<dim>1</dim>
					<dim>16</dim>
					<dim>100</dim>
					<dim>170</dim>
				</port>
			</input>
			<output>
				<port id="1">
					<dim>1</dim>
					<dim>16</dim>
					<dim>100</dim>
					<dim>170</dim>
				</port>
			</output>
		</layer>
		<layer id="45" name="ActionNet/twinnet/shared/bottleneck2_1/dim_inc/Conv2D" precision="FP32" type="Convolution">
			<data auto_pad="same_upper" dilations="1,1" group="1" kernel="1,1" output="64" pads_begin="0,0" pads_end="0,0" strides="1,1"/>
			<input>
				<port id="0">
					<dim>1</dim>
					<dim>16</dim>
					<dim>100</dim>
					<dim>170</dim>
				</port>
			</input>
			<output>
				<port id="3">
					<dim>1</dim>
					<dim>64</dim>
					<dim>100</dim>
					<dim>170</dim>
				</port>
			</output>
			<blobs>
				<weights offset="34072" size="4096"/>
				<biases offset="38168" size="256"/>
			</blobs>
		</layer>
		<layer id="46" name="ActionNet/twinnet/shared/bottleneck2_1/Add" precision="FP32" type="Eltwise">
			<data operation="sum"/>
			<input>
				<port id="0">
					<dim>1</dim>
					<dim>64</dim>
					<dim>100</dim>
					<dim>170</dim>
				</port>
				<port id="1">
					<dim>1</dim>
					<dim>64</dim>
					<dim>100</dim>
					<dim>170</dim>
				</port>
			</input>
			<output>
				<port id="2">
					<dim>1</dim>
					<dim>64</dim>
					<dim>100</dim>
					<dim>170</dim>
				</port>
			</output>
		</layer>
		<layer id="47" name="ActionNet/twinnet/shared/bottleneck2_1/LeakyRelu" precision="FP32" type="ReLU">
			<data negative_slope="0.10000000149011612"/>
			<input>
				<port id="0">
					<dim>1</dim>
					<dim>64</dim>
					<dim>100</dim>
					<dim>170</dim>
				</port>
			</input>
			<output>
				<port id="1">
					<dim>1</dim>
					<dim>64</dim>
					<dim>100</dim>
					<dim>170</dim>
				</port>
			</output>
		</layer>
		<layer id="48" name="ActionNet/twinnet/shared/bottleneck2_2/dim_red/Conv2D" precision="FP32" type="Convolution">
			<data auto_pad="same_upper" dilations="1,1" group="1" kernel="1,1" output="16" pads_begin="0,0" pads_end="0,0" strides="1,1"/>
			<input>
				<port id="0">
					<dim>1</dim>
					<dim>64</dim>
					<dim>100</dim>
					<dim>170</dim>
				</port>
			</input>
			<output>
				<port id="3">
					<dim>1</dim>
					<dim>16</dim>
					<dim>100</dim>
					<dim>170</dim>
				</port>
			</output>
			<blobs>
				<weights offset="38424" size="4096"/>
				<biases offset="42520" size="64"/>
			</blobs>
		</layer>
		<layer id="49" name="ActionNet/twinnet/shared/bottleneck2_2/dim_red/ActionNet/twinnet/shared/bottleneck2_2/dim_red_fn_activation" precision="FP32" type="ReLU">
			<data negative_slope="0.10000000149011612"/>
			<input>
				<port id="0">
					<dim>1</dim>
					<dim>16</dim>
					<dim>100</dim>
					<dim>170</dim>
				</port>
			</input>
			<output>
				<port id="1">
					<dim>1</dim>
					<dim>16</dim>
					<dim>100</dim>
					<dim>170</dim>
				</port>
			</output>
		</layer>
		<layer id="50" name="ActionNet/twinnet/shared/bottleneck2_2/inner_conv/depthwise" precision="FP32" type="Convolution">
			<data auto_pad="same_upper" dilations="1,1" group="16" kernel="3,3" output="16" pads_begin="1,1" pads_end="1,1" strides="1,1"/>
			<input>
				<port id="0">
					<dim>1</dim>
					<dim>16</dim>
					<dim>100</dim>
					<dim>170</dim>
				</port>
			</input>
			<output>
				<port id="3">
					<dim>1</dim>
					<dim>16</dim>
					<dim>100</dim>
					<dim>170</dim>
				</port>
			</output>
			<blobs>
				<weights offset="42584" size="576"/>
				<biases offset="43160" size="64"/>
			</blobs>
		</layer>
		<layer id="51" name="ActionNet/twinnet/shared/bottleneck2_2/inner_conv/ActionNet/twinnet/shared/bottleneck2_2/inner_conv_fn_activation" precision="FP32" type="ReLU">
			<data negative_slope="0.10000000149011612"/>
			<input>
				<port id="0">
					<dim>1</dim>
					<dim>16</dim>
					<dim>100</dim>
					<dim>170</dim>
				</port>
			</input>
			<output>
				<port id="1">
					<dim>1</dim>
					<dim>16</dim>
					<dim>100</dim>
					<dim>170</dim>
				</port>
			</output>
		</layer>
		<layer id="52" name="ActionNet/twinnet/shared/bottleneck2_2/dim_inc/Conv2D" precision="FP32" type="Convolution">
			<data auto_pad="same_upper" dilations="1,1" group="1" kernel="1,1" output="64" pads_begin="0,0" pads_end="0,0" strides="1,1"/>
			<input>
				<port id="0">
					<dim>1</dim>
					<dim>16</dim>
					<dim>100</dim>
					<dim>170</dim>
				</port>
			</input>
			<output>
				<port id="3">
					<dim>1</dim>
					<dim>64</dim>
					<dim>100</dim>
					<dim>170</dim>
				</port>
			</output>
			<blobs>
				<weights offset="43224" size="4096"/>
				<biases offset="47320" size="256"/>
			</blobs>
		</layer>
		<layer id="53" name="ActionNet/twinnet/shared/bottleneck2_2/Add" precision="FP32" type="Eltwise">
			<data operation="sum"/>
			<input>
				<port id="0">
					<dim>1</dim>
					<dim>64</dim>
					<dim>100</dim>
					<dim>170</dim>
				</port>
				<port id="1">
					<dim>1</dim>
					<dim>64</dim>
					<dim>100</dim>
					<dim>170</dim>
				</port>
			</input>
			<output>
				<port id="2">
					<dim>1</dim>
					<dim>64</dim>
					<dim>100</dim>
					<dim>170</dim>
				</port>
			</output>
		</layer>
		<layer id="54" name="ActionNet/twinnet/shared/bottleneck2_2/LeakyRelu" precision="FP32" type="ReLU">
			<data negative_slope="0.10000000149011612"/>
			<input>
				<port id="0">
					<dim>1</dim>
					<dim>64</dim>
					<dim>100</dim>
					<dim>170</dim>
				</port>
			</input>
			<output>
				<port id="1">
					<dim>1</dim>
					<dim>64</dim>
					<dim>100</dim>
					<dim>170</dim>
				</port>
			</output>
		</layer>
		<layer id="55" name="ActionNet/twinnet/shared/bottleneck2_3/dim_red/Conv2D" precision="FP32" type="Convolution">
			<data auto_pad="same_upper" dilations="1,1" group="1" kernel="1,1" output="16" pads_begin="0,0" pads_end="0,0" strides="1,1"/>
			<input>
				<port id="0">
					<dim>1</dim>
					<dim>64</dim>
					<dim>100</dim>
					<dim>170</dim>
				</port>
			</input>
			<output>
				<port id="3">
					<dim>1</dim>
					<dim>16</dim>
					<dim>100</dim>
					<dim>170</dim>
				</port>
			</output>
			<blobs>
				<weights offset="47576" size="4096"/>
				<biases offset="51672" size="64"/>
			</blobs>
		</layer>
		<layer id="56" name="ActionNet/twinnet/shared/bottleneck2_3/dim_red/ActionNet/twinnet/shared/bottleneck2_3/dim_red_fn_activation" precision="FP32" type="ReLU">
			<data negative_slope="0.10000000149011612"/>
			<input>
				<port id="0">
					<dim>1</dim>
					<dim>16</dim>
					<dim>100</dim>
					<dim>170</dim>
				</port>
			</input>
			<output>
				<port id="1">
					<dim>1</dim>
					<dim>16</dim>
					<dim>100</dim>
					<dim>170</dim>
				</port>
			</output>
		</layer>
		<layer id="57" name="ActionNet/twinnet/shared/bottleneck2_3/inner_conv/depthwise" precision="FP32" type="Convolution">
			<data auto_pad="same_upper" dilations="1,1" group="16" kernel="3,3" output="16" pads_begin="1,1" pads_end="1,1" strides="1,1"/>
			<input>
				<port id="0">
					<dim>1</dim>
					<dim>16</dim>
					<dim>100</dim>
					<dim>170</dim>
				</port>
			</input>
			<output>
				<port id="3">
					<dim>1</dim>
					<dim>16</dim>
					<dim>100</dim>
					<dim>170</dim>
				</port>
			</output>
			<blobs>
				<weights offset="51736" size="576"/>
				<biases offset="52312" size="64"/>
			</blobs>
		</layer>
		<layer id="58" name="ActionNet/twinnet/shared/bottleneck2_3/inner_conv/ActionNet/twinnet/shared/bottleneck2_3/inner_conv_fn_activation" precision="FP32" type="ReLU">
			<data negative_slope="0.10000000149011612"/>
			<input>
				<port id="0">
					<dim>1</dim>
					<dim>16</dim>
					<dim>100</dim>
					<dim>170</dim>
				</port>
			</input>
			<output>
				<port id="1">
					<dim>1</dim>
					<dim>16</dim>
					<dim>100</dim>
					<dim>170</dim>
				</port>
			</output>
		</layer>
		<layer id="59" name="ActionNet/twinnet/shared/bottleneck2_3/dim_inc/Conv2D" precision="FP32" type="Convolution">
			<data auto_pad="same_upper" dilations="1,1" group="1" kernel="1,1" output="64" pads_begin="0,0" pads_end="0,0" strides="1,1"/>
			<input>
				<port id="0">
					<dim>1</dim>
					<dim>16</dim>
					<dim>100</dim>
					<dim>170</dim>
				</port>
			</input>
			<output>
				<port id="3">
					<dim>1</dim>
					<dim>64</dim>
					<dim>100</dim>
					<dim>170</dim>
				</port>
			</output>
			<blobs>
				<weights offset="52376" size="4096"/>
				<biases offset="56472" size="256"/>
			</blobs>
		</layer>
		<layer id="60" name="ActionNet/twinnet/shared/bottleneck2_3/Add" precision="FP32" type="Eltwise">
			<data operation="sum"/>
			<input>
				<port id="0">
					<dim>1</dim>
					<dim>64</dim>
					<dim>100</dim>
					<dim>170</dim>
				</port>
				<port id="1">
					<dim>1</dim>
					<dim>64</dim>
					<dim>100</dim>
					<dim>170</dim>
				</port>
			</input>
			<output>
				<port id="2">
					<dim>1</dim>
					<dim>64</dim>
					<dim>100</dim>
					<dim>170</dim>
				</port>
			</output>
		</layer>
		<layer id="61" name="ActionNet/twinnet/shared/bottleneck2_3/LeakyRelu" precision="FP32" type="ReLU">
			<data negative_slope="0.10000000149011612"/>
			<input>
				<port id="0">
					<dim>1</dim>
					<dim>64</dim>
					<dim>100</dim>
					<dim>170</dim>
				</port>
			</input>
			<output>
				<port id="1">
					<dim>1</dim>
					<dim>64</dim>
					<dim>100</dim>
					<dim>170</dim>
				</port>
			</output>
		</layer>
		<layer id="62" name="ActionNet/twinnet/shared/bottleneck2_4/dim_red/Conv2D" precision="FP32" type="Convolution">
			<data auto_pad="same_upper" dilations="1,1" group="1" kernel="1,1" output="16" pads_begin="0,0" pads_end="0,0" strides="1,1"/>
			<input>
				<port id="0">
					<dim>1</dim>
					<dim>64</dim>
					<dim>100</dim>
					<dim>170</dim>
				</port>
			</input>
			<output>
				<port id="3">
					<dim>1</dim>
					<dim>16</dim>
					<dim>100</dim>
					<dim>170</dim>
				</port>
			</output>
			<blobs>
				<weights offset="56728" size="4096"/>
				<biases offset="60824" size="64"/>
			</blobs>
		</layer>
		<layer id="63" name="ActionNet/twinnet/shared/bottleneck2_4/dim_red/ActionNet/twinnet/shared/bottleneck2_4/dim_red_fn_activation" precision="FP32" type="ReLU">
			<data negative_slope="0.10000000149011612"/>
			<input>
				<port id="0">
					<dim>1</dim>
					<dim>16</dim>
					<dim>100</dim>
					<dim>170</dim>
				</port>
			</input>
			<output>
				<port id="1">
					<dim>1</dim>
					<dim>16</dim>
					<dim>100</dim>
					<dim>170</dim>
				</port>
			</output>
		</layer>
		<layer id="64" name="ActionNet/twinnet/shared/bottleneck2_4/inner_conv/depthwise" precision="FP32" type="Convolution">
			<data auto_pad="same_upper" dilations="1,1" group="16" kernel="3,3" output="16" pads_begin="1,1" pads_end="1,1" strides="1,1"/>
			<input>
				<port id="0">
					<dim>1</dim>
					<dim>16</dim>
					<dim>100</dim>
					<dim>170</dim>
				</port>
			</input>
			<output>
				<port id="3">
					<dim>1</dim>
					<dim>16</dim>
					<dim>100</dim>
					<dim>170</dim>
				</port>
			</output>
			<blobs>
				<weights offset="60888" size="576"/>
				<biases offset="61464" size="64"/>
			</blobs>
		</layer>
		<layer id="65" name="ActionNet/twinnet/shared/bottleneck2_4/inner_conv/ActionNet/twinnet/shared/bottleneck2_4/inner_conv_fn_activation" precision="FP32" type="ReLU">
			<data negative_slope="0.10000000149011612"/>
			<input>
				<port id="0">
					<dim>1</dim>
					<dim>16</dim>
					<dim>100</dim>
					<dim>170</dim>
				</port>
			</input>
			<output>
				<port id="1">
					<dim>1</dim>
					<dim>16</dim>
					<dim>100</dim>
					<dim>170</dim>
				</port>
			</output>
		</layer>
		<layer id="66" name="ActionNet/twinnet/shared/bottleneck2_4/dim_inc/Conv2D" precision="FP32" type="Convolution">
			<data auto_pad="same_upper" dilations="1,1" group="1" kernel="1,1" output="64" pads_begin="0,0" pads_end="0,0" strides="1,1"/>
			<input>
				<port id="0">
					<dim>1</dim>
					<dim>16</dim>
					<dim>100</dim>
					<dim>170</dim>
				</port>
			</input>
			<output>
				<port id="3">
					<dim>1</dim>
					<dim>64</dim>
					<dim>100</dim>
					<dim>170</dim>
				</port>
			</output>
			<blobs>
				<weights offset="61528" size="4096"/>
				<biases offset="65624" size="256"/>
			</blobs>
		</layer>
		<layer id="67" name="ActionNet/twinnet/shared/bottleneck2_4/Add" precision="FP32" type="Eltwise">
			<data operation="sum"/>
			<input>
				<port id="0">
					<dim>1</dim>
					<dim>64</dim>
					<dim>100</dim>
					<dim>170</dim>
				</port>
				<port id="1">
					<dim>1</dim>
					<dim>64</dim>
					<dim>100</dim>
					<dim>170</dim>
				</port>
			</input>
			<output>
				<port id="2">
					<dim>1</dim>
					<dim>64</dim>
					<dim>100</dim>
					<dim>170</dim>
				</port>
			</output>
		</layer>
		<layer id="68" name="ActionNet/twinnet/shared/bottleneck2_4/LeakyRelu" precision="FP32" type="ReLU">
			<data negative_slope="0.10000000149011612"/>
			<input>
				<port id="0">
					<dim>1</dim>
					<dim>64</dim>
					<dim>100</dim>
					<dim>170</dim>
				</port>
			</input>
			<output>
				<port id="1">
					<dim>1</dim>
					<dim>64</dim>
					<dim>100</dim>
					<dim>170</dim>
				</port>
			</output>
		</layer>
		<layer id="69" name="ActionNet/twinnet/shared/bottleneck2_5/dim_red/Conv2D" precision="FP32" type="Convolution">
			<data auto_pad="same_upper" dilations="1,1" group="1" kernel="1,1" output="16" pads_begin="0,0" pads_end="0,0" strides="1,1"/>
			<input>
				<port id="0">
					<dim>1</dim>
					<dim>64</dim>
					<dim>100</dim>
					<dim>170</dim>
				</port>
			</input>
			<output>
				<port id="3">
					<dim>1</dim>
					<dim>16</dim>
					<dim>100</dim>
					<dim>170</dim>
				</port>
			</output>
			<blobs>
				<weights offset="65880" size="4096"/>
				<biases offset="69976" size="64"/>
			</blobs>
		</layer>
		<layer id="70" name="ActionNet/twinnet/shared/bottleneck2_5/dim_red/ActionNet/twinnet/shared/bottleneck2_5/dim_red_fn_activation" precision="FP32" type="ReLU">
			<data negative_slope="0.10000000149011612"/>
			<input>
				<port id="0">
					<dim>1</dim>
					<dim>16</dim>
					<dim>100</dim>
					<dim>170</dim>
				</port>
			</input>
			<output>
				<port id="1">
					<dim>1</dim>
					<dim>16</dim>
					<dim>100</dim>
					<dim>170</dim>
				</port>
			</output>
		</layer>
		<layer id="71" name="ActionNet/twinnet/shared/bottleneck2_5/inner_conv/depthwise" precision="FP32" type="Convolution">
			<data auto_pad="same_upper" dilations="1,1" group="16" kernel="3,3" output="16" pads_begin="1,1" pads_end="1,1" strides="1,1"/>
			<input>
				<port id="0">
					<dim>1</dim>
					<dim>16</dim>
					<dim>100</dim>
					<dim>170</dim>
				</port>
			</input>
			<output>
				<port id="3">
					<dim>1</dim>
					<dim>16</dim>
					<dim>100</dim>
					<dim>170</dim>
				</port>
			</output>
			<blobs>
				<weights offset="70040" size="576"/>
				<biases offset="70616" size="64"/>
			</blobs>
		</layer>
		<layer id="72" name="ActionNet/twinnet/shared/bottleneck2_5/inner_conv/ActionNet/twinnet/shared/bottleneck2_5/inner_conv_fn_activation" precision="FP32" type="ReLU">
			<data negative_slope="0.10000000149011612"/>
			<input>
				<port id="0">
					<dim>1</dim>
					<dim>16</dim>
					<dim>100</dim>
					<dim>170</dim>
				</port>
			</input>
			<output>
				<port id="1">
					<dim>1</dim>
					<dim>16</dim>
					<dim>100</dim>
					<dim>170</dim>
				</port>
			</output>
		</layer>
		<layer id="73" name="ActionNet/twinnet/shared/bottleneck2_5/dim_inc/Conv2D" precision="FP32" type="Convolution">
			<data auto_pad="same_upper" dilations="1,1" group="1" kernel="1,1" output="64" pads_begin="0,0" pads_end="0,0" strides="1,1"/>
			<input>
				<port id="0">
					<dim>1</dim>
					<dim>16</dim>
					<dim>100</dim>
					<dim>170</dim>
				</port>
			</input>
			<output>
				<port id="3">
					<dim>1</dim>
					<dim>64</dim>
					<dim>100</dim>
					<dim>170</dim>
				</port>
			</output>
			<blobs>
				<weights offset="70680" size="4096"/>
				<biases offset="74776" size="256"/>
			</blobs>
		</layer>
		<layer id="74" name="ActionNet/twinnet/shared/bottleneck2_5/Add" precision="FP32" type="Eltwise">
			<data operation="sum"/>
			<input>
				<port id="0">
					<dim>1</dim>
					<dim>64</dim>
					<dim>100</dim>
					<dim>170</dim>
				</port>
				<port id="1">
					<dim>1</dim>
					<dim>64</dim>
					<dim>100</dim>
					<dim>170</dim>
				</port>
			</input>
			<output>
				<port id="2">
					<dim>1</dim>
					<dim>64</dim>
					<dim>100</dim>
					<dim>170</dim>
				</port>
			</output>
		</layer>
		<layer id="75" name="ActionNet/twinnet/shared/bottleneck2_5/LeakyRelu" precision="FP32" type="ReLU">
			<data negative_slope="0.10000000149011612"/>
			<input>
				<port id="0">
					<dim>1</dim>
					<dim>64</dim>
					<dim>100</dim>
					<dim>170</dim>
				</port>
			</input>
			<output>
				<port id="1">
					<dim>1</dim>
					<dim>64</dim>
					<dim>100</dim>
					<dim>170</dim>
				</port>
			</output>
		</layer>
		<layer id="76" name="ActionNet/twinnet/shared/bottleneck2_6/dim_red/Conv2D" precision="FP32" type="Convolution">
			<data auto_pad="same_upper" dilations="1,1" group="1" kernel="1,1" output="16" pads_begin="0,0" pads_end="0,0" strides="1,1"/>
			<input>
				<port id="0">
					<dim>1</dim>
					<dim>64</dim>
					<dim>100</dim>
					<dim>170</dim>
				</port>
			</input>
			<output>
				<port id="3">
					<dim>1</dim>
					<dim>16</dim>
					<dim>100</dim>
					<dim>170</dim>
				</port>
			</output>
			<blobs>
				<weights offset="75032" size="4096"/>
				<biases offset="79128" size="64"/>
			</blobs>
		</layer>
		<layer id="77" name="ActionNet/twinnet/shared/bottleneck2_6/dim_red/ActionNet/twinnet/shared/bottleneck2_6/dim_red_fn_activation" precision="FP32" type="ReLU">
			<data negative_slope="0.10000000149011612"/>
			<input>
				<port id="0">
					<dim>1</dim>
					<dim>16</dim>
					<dim>100</dim>
					<dim>170</dim>
				</port>
			</input>
			<output>
				<port id="1">
					<dim>1</dim>
					<dim>16</dim>
					<dim>100</dim>
					<dim>170</dim>
				</port>
			</output>
		</layer>
		<layer id="78" name="ActionNet/twinnet/shared/bottleneck2_6/inner_conv/depthwise" precision="FP32" type="Convolution">
			<data auto_pad="same_upper" dilations="1,1" group="16" kernel="3,3" output="16" pads_begin="1,1" pads_end="1,1" strides="1,1"/>
			<input>
				<port id="0">
					<dim>1</dim>
					<dim>16</dim>
					<dim>100</dim>
					<dim>170</dim>
				</port>
			</input>
			<output>
				<port id="3">
					<dim>1</dim>
					<dim>16</dim>
					<dim>100</dim>
					<dim>170</dim>
				</port>
			</output>
			<blobs>
				<weights offset="79192" size="576"/>
				<biases offset="79768" size="64"/>
			</blobs>
		</layer>
		<layer id="79" name="ActionNet/twinnet/shared/bottleneck2_6/inner_conv/ActionNet/twinnet/shared/bottleneck2_6/inner_conv_fn_activation" precision="FP32" type="ReLU">
			<data negative_slope="0.10000000149011612"/>
			<input>
				<port id="0">
					<dim>1</dim>
					<dim>16</dim>
					<dim>100</dim>
					<dim>170</dim>
				</port>
			</input>
			<output>
				<port id="1">
					<dim>1</dim>
					<dim>16</dim>
					<dim>100</dim>
					<dim>170</dim>
				</port>
			</output>
		</layer>
		<layer id="80" name="ActionNet/twinnet/shared/bottleneck2_6/dim_inc/Conv2D" precision="FP32" type="Convolution">
			<data auto_pad="same_upper" dilations="1,1" group="1" kernel="1,1" output="64" pads_begin="0,0" pads_end="0,0" strides="1,1"/>
			<input>
				<port id="0">
					<dim>1</dim>
					<dim>16</dim>
					<dim>100</dim>
					<dim>170</dim>
				</port>
			</input>
			<output>
				<port id="3">
					<dim>1</dim>
					<dim>64</dim>
					<dim>100</dim>
					<dim>170</dim>
				</port>
			</output>
			<blobs>
				<weights offset="79832" size="4096"/>
				<biases offset="83928" size="256"/>
			</blobs>
		</layer>
		<layer id="81" name="ActionNet/twinnet/shared/bottleneck2_6/Add" precision="FP32" type="Eltwise">
			<data operation="sum"/>
			<input>
				<port id="0">
					<dim>1</dim>
					<dim>64</dim>
					<dim>100</dim>
					<dim>170</dim>
				</port>
				<port id="1">
					<dim>1</dim>
					<dim>64</dim>
					<dim>100</dim>
					<dim>170</dim>
				</port>
			</input>
			<output>
				<port id="2">
					<dim>1</dim>
					<dim>64</dim>
					<dim>100</dim>
					<dim>170</dim>
				</port>
			</output>
		</layer>
		<layer id="82" name="ActionNet/twinnet/shared/bottleneck2_6/LeakyRelu" precision="FP32" type="ReLU">
			<data negative_slope="0.10000000149011612"/>
			<input>
				<port id="0">
					<dim>1</dim>
					<dim>64</dim>
					<dim>100</dim>
					<dim>170</dim>
				</port>
			</input>
			<output>
				<port id="1">
					<dim>1</dim>
					<dim>64</dim>
					<dim>100</dim>
					<dim>170</dim>
				</port>
			</output>
		</layer>
		<layer id="83" name="ActionNet/twinnet/shared/bottleneck2_7/dim_red/Conv2D" precision="FP32" type="Convolution">
			<data auto_pad="same_upper" dilations="1,1" group="1" kernel="1,1" output="16" pads_begin="0,0" pads_end="0,0" strides="1,1"/>
			<input>
				<port id="0">
					<dim>1</dim>
					<dim>64</dim>
					<dim>100</dim>
					<dim>170</dim>
				</port>
			</input>
			<output>
				<port id="3">
					<dim>1</dim>
					<dim>16</dim>
					<dim>100</dim>
					<dim>170</dim>
				</port>
			</output>
			<blobs>
				<weights offset="84184" size="4096"/>
				<biases offset="88280" size="64"/>
			</blobs>
		</layer>
		<layer id="84" name="ActionNet/twinnet/shared/bottleneck2_7/dim_red/ActionNet/twinnet/shared/bottleneck2_7/dim_red_fn_activation" precision="FP32" type="ReLU">
			<data negative_slope="0.10000000149011612"/>
			<input>
				<port id="0">
					<dim>1</dim>
					<dim>16</dim>
					<dim>100</dim>
					<dim>170</dim>
				</port>
			</input>
			<output>
				<port id="1">
					<dim>1</dim>
					<dim>16</dim>
					<dim>100</dim>
					<dim>170</dim>
				</port>
			</output>
		</layer>
		<layer id="85" name="ActionNet/twinnet/shared/bottleneck2_7/inner_conv/depthwise" precision="FP32" type="Convolution">
			<data auto_pad="same_upper" dilations="1,1" group="16" kernel="3,3" output="16" pads_begin="1,1" pads_end="1,1" strides="1,1"/>
			<input>
				<port id="0">
					<dim>1</dim>
					<dim>16</dim>
					<dim>100</dim>
					<dim>170</dim>
				</port>
			</input>
			<output>
				<port id="3">
					<dim>1</dim>
					<dim>16</dim>
					<dim>100</dim>
					<dim>170</dim>
				</port>
			</output>
			<blobs>
				<weights offset="88344" size="576"/>
				<biases offset="88920" size="64"/>
			</blobs>
		</layer>
		<layer id="86" name="ActionNet/twinnet/shared/bottleneck2_7/inner_conv/ActionNet/twinnet/shared/bottleneck2_7/inner_conv_fn_activation" precision="FP32" type="ReLU">
			<data negative_slope="0.10000000149011612"/>
			<input>
				<port id="0">
					<dim>1</dim>
					<dim>16</dim>
					<dim>100</dim>
					<dim>170</dim>
				</port>
			</input>
			<output>
				<port id="1">
					<dim>1</dim>
					<dim>16</dim>
					<dim>100</dim>
					<dim>170</dim>
				</port>
			</output>
		</layer>
		<layer id="87" name="ActionNet/twinnet/shared/bottleneck2_7/dim_inc/Conv2D" precision="FP32" type="Convolution">
			<data auto_pad="same_upper" dilations="1,1" group="1" kernel="1,1" output="64" pads_begin="0,0" pads_end="0,0" strides="1,1"/>
			<input>
				<port id="0">
					<dim>1</dim>
					<dim>16</dim>
					<dim>100</dim>
					<dim>170</dim>
				</port>
			</input>
			<output>
				<port id="3">
					<dim>1</dim>
					<dim>64</dim>
					<dim>100</dim>
					<dim>170</dim>
				</port>
			</output>
			<blobs>
				<weights offset="88984" size="4096"/>
				<biases offset="93080" size="256"/>
			</blobs>
		</layer>
		<layer id="88" name="ActionNet/twinnet/shared/bottleneck2_7/Add" precision="FP32" type="Eltwise">
			<data operation="sum"/>
			<input>
				<port id="0">
					<dim>1</dim>
					<dim>64</dim>
					<dim>100</dim>
					<dim>170</dim>
				</port>
				<port id="1">
					<dim>1</dim>
					<dim>64</dim>
					<dim>100</dim>
					<dim>170</dim>
				</port>
			</input>
			<output>
				<port id="2">
					<dim>1</dim>
					<dim>64</dim>
					<dim>100</dim>
					<dim>170</dim>
				</port>
			</output>
		</layer>
		<layer id="89" name="ActionNet/twinnet/shared/bottleneck2_7/LeakyRelu" precision="FP32" type="ReLU">
			<data negative_slope="0.10000000149011612"/>
			<input>
				<port id="0">
					<dim>1</dim>
					<dim>64</dim>
					<dim>100</dim>
					<dim>170</dim>
				</port>
			</input>
			<output>
				<port id="1">
					<dim>1</dim>
					<dim>64</dim>
					<dim>100</dim>
					<dim>170</dim>
				</port>
			</output>
		</layer>
		<layer id="90" name="ActionNet/twinnet/shared/bottleneck2_8/dim_red/Conv2D" precision="FP32" type="Convolution">
			<data auto_pad="same_upper" dilations="1,1" group="1" kernel="1,1" output="16" pads_begin="0,0" pads_end="0,0" strides="1,1"/>
			<input>
				<port id="0">
					<dim>1</dim>
					<dim>64</dim>
					<dim>100</dim>
					<dim>170</dim>
				</port>
			</input>
			<output>
				<port id="3">
					<dim>1</dim>
					<dim>16</dim>
					<dim>100</dim>
					<dim>170</dim>
				</port>
			</output>
			<blobs>
				<weights offset="93336" size="4096"/>
				<biases offset="97432" size="64"/>
			</blobs>
		</layer>
		<layer id="91" name="ActionNet/twinnet/shared/bottleneck2_8/dim_red/ActionNet/twinnet/shared/bottleneck2_8/dim_red_fn_activation" precision="FP32" type="ReLU">
			<data negative_slope="0.10000000149011612"/>
			<input>
				<port id="0">
					<dim>1</dim>
					<dim>16</dim>
					<dim>100</dim>
					<dim>170</dim>
				</port>
			</input>
			<output>
				<port id="1">
					<dim>1</dim>
					<dim>16</dim>
					<dim>100</dim>
					<dim>170</dim>
				</port>
			</output>
		</layer>
		<layer id="92" name="ActionNet/twinnet/shared/bottleneck2_8/inner_conv/depthwise" precision="FP32" type="Convolution">
			<data auto_pad="same_upper" dilations="1,1" group="16" kernel="3,3" output="16" pads_begin="1,1" pads_end="1,1" strides="1,1"/>
			<input>
				<port id="0">
					<dim>1</dim>
					<dim>16</dim>
					<dim>100</dim>
					<dim>170</dim>
				</port>
			</input>
			<output>
				<port id="3">
					<dim>1</dim>
					<dim>16</dim>
					<dim>100</dim>
					<dim>170</dim>
				</port>
			</output>
			<blobs>
				<weights offset="97496" size="576"/>
				<biases offset="98072" size="64"/>
			</blobs>
		</layer>
		<layer id="93" name="ActionNet/twinnet/shared/bottleneck2_8/inner_conv/ActionNet/twinnet/shared/bottleneck2_8/inner_conv_fn_activation" precision="FP32" type="ReLU">
			<data negative_slope="0.10000000149011612"/>
			<input>
				<port id="0">
					<dim>1</dim>
					<dim>16</dim>
					<dim>100</dim>
					<dim>170</dim>
				</port>
			</input>
			<output>
				<port id="1">
					<dim>1</dim>
					<dim>16</dim>
					<dim>100</dim>
					<dim>170</dim>
				</port>
			</output>
		</layer>
		<layer id="94" name="ActionNet/twinnet/shared/bottleneck2_8/dim_inc/Conv2D" precision="FP32" type="Convolution">
			<data auto_pad="same_upper" dilations="1,1" group="1" kernel="1,1" output="64" pads_begin="0,0" pads_end="0,0" strides="1,1"/>
			<input>
				<port id="0">
					<dim>1</dim>
					<dim>16</dim>
					<dim>100</dim>
					<dim>170</dim>
				</port>
			</input>
			<output>
				<port id="3">
					<dim>1</dim>
					<dim>64</dim>
					<dim>100</dim>
					<dim>170</dim>
				</port>
			</output>
			<blobs>
				<weights offset="98136" size="4096"/>
				<biases offset="102232" size="256"/>
			</blobs>
		</layer>
		<layer id="95" name="ActionNet/twinnet/shared/bottleneck2_8/Add" precision="FP32" type="Eltwise">
			<data operation="sum"/>
			<input>
				<port id="0">
					<dim>1</dim>
					<dim>64</dim>
					<dim>100</dim>
					<dim>170</dim>
				</port>
				<port id="1">
					<dim>1</dim>
					<dim>64</dim>
					<dim>100</dim>
					<dim>170</dim>
				</port>
			</input>
			<output>
				<port id="2">
					<dim>1</dim>
					<dim>64</dim>
					<dim>100</dim>
					<dim>170</dim>
				</port>
			</output>
		</layer>
		<layer id="96" name="ActionNet/twinnet/shared/bottleneck2_8/LeakyRelu" precision="FP32" type="ReLU">
			<data negative_slope="0.10000000149011612"/>
			<input>
				<port id="0">
					<dim>1</dim>
					<dim>64</dim>
					<dim>100</dim>
					<dim>170</dim>
				</port>
			</input>
			<output>
				<port id="1">
					<dim>1</dim>
					<dim>64</dim>
					<dim>100</dim>
					<dim>170</dim>
				</port>
			</output>
		</layer>
		<layer id="97" name="ActionNet/twinnet/classification/bottleneck3_0/dim_red/Conv2D" precision="FP32" type="Convolution">
			<data auto_pad="same_upper" dilations="1,1" group="1" kernel="1,1" output="32" pads_begin="0,0" pads_end="0,0" strides="1,1"/>
			<input>
				<port id="0">
					<dim>1</dim>
					<dim>64</dim>
					<dim>100</dim>
					<dim>170</dim>
				</port>
			</input>
			<output>
				<port id="3">
					<dim>1</dim>
					<dim>32</dim>
					<dim>100</dim>
					<dim>170</dim>
				</port>
			</output>
			<blobs>
				<weights offset="102488" size="8192"/>
				<biases offset="110680" size="128"/>
			</blobs>
		</layer>
		<layer id="98" name="ActionNet/twinnet/classification/bottleneck3_0/dim_red/ActionNet/twinnet/classification/bottleneck3_0/dim_red_fn_activation" precision="FP32" type="ReLU">
			<data negative_slope="0.10000000149011612"/>
			<input>
				<port id="0">
					<dim>1</dim>
					<dim>32</dim>
					<dim>100</dim>
					<dim>170</dim>
				</port>
			</input>
			<output>
				<port id="1">
					<dim>1</dim>
					<dim>32</dim>
					<dim>100</dim>
					<dim>170</dim>
				</port>
			</output>
		</layer>
		<layer id="99" name="ActionNet/twinnet/classification/bottleneck3_0/inner_conv/depthwise" precision="FP32" type="Convolution">
			<data auto_pad="same_upper" dilations="1,1" group="32" kernel="3,3" output="32" pads_begin="0,0" pads_end="1,1" strides="2,2"/>
			<input>
				<port id="0">
					<dim>1</dim>
					<dim>32</dim>
					<dim>100</dim>
					<dim>170</dim>
				</port>
			</input>
			<output>
				<port id="3">
					<dim>1</dim>
					<dim>32</dim>
					<dim>50</dim>
					<dim>85</dim>
				</port>
			</output>
			<blobs>
				<weights offset="110808" size="1152"/>
				<biases offset="111960" size="128"/>
			</blobs>
		</layer>
		<layer id="100" name="ActionNet/twinnet/classification/bottleneck3_0/inner_conv/ActionNet/twinnet/classification/bottleneck3_0/inner_conv_fn_activation" precision="FP32" type="ReLU">
			<data negative_slope="0.10000000149011612"/>
			<input>
				<port id="0">
					<dim>1</dim>
					<dim>32</dim>
					<dim>50</dim>
					<dim>85</dim>
				</port>
			</input>
			<output>
				<port id="1">
					<dim>1</dim>
					<dim>32</dim>
					<dim>50</dim>
					<dim>85</dim>
				</port>
			</output>
		</layer>
		<layer id="101" name="ActionNet/twinnet/classification/bottleneck3_0/dim_inc/Conv2D" precision="FP32" type="Convolution">
			<data auto_pad="same_upper" dilations="1,1" group="1" kernel="1,1" output="128" pads_begin="0,0" pads_end="0,0" strides="1,1"/>
			<input>
				<port id="0">
					<dim>1</dim>
					<dim>32</dim>
					<dim>50</dim>
					<dim>85</dim>
				</port>
			</input>
			<output>
				<port id="3">
					<dim>1</dim>
					<dim>128</dim>
					<dim>50</dim>
					<dim>85</dim>
				</port>
			</output>
			<blobs>
				<weights offset="112088" size="16384"/>
				<biases offset="128472" size="512"/>
			</blobs>
		</layer>
		<layer id="102" name="ActionNet/twinnet/classification/bottleneck3_0/max_pool/MaxPool" precision="FP32" type="Pooling">
			<data auto_pad="same_upper" exclude-pad="true" kernel="2,2" pads_begin="0,0" pads_end="0,0" pool-method="max" strides="2,2"/>
			<input>
				<port id="0">
					<dim>1</dim>
					<dim>64</dim>
					<dim>100</dim>
					<dim>170</dim>
				</port>
			</input>
			<output>
				<port id="1">
					<dim>1</dim>
					<dim>64</dim>
					<dim>50</dim>
					<dim>85</dim>
				</port>
			</output>
		</layer>
		<layer id="103" name="ActionNet/twinnet/classification/bottleneck3_0/skip_conv/Conv2D" precision="FP32" type="Convolution">
			<data auto_pad="same_upper" dilations="1,1" group="1" kernel="1,1" output="128" pads_begin="0,0" pads_end="0,0" strides="1,1"/>
			<input>
				<port id="0">
					<dim>1</dim>
					<dim>64</dim>
					<dim>50</dim>
					<dim>85</dim>
				</port>
			</input>
			<output>
				<port id="3">
					<dim>1</dim>
					<dim>128</dim>
					<dim>50</dim>
					<dim>85</dim>
				</port>
			</output>
			<blobs>
				<weights offset="128984" size="32768"/>
				<biases offset="161752" size="512"/>
			</blobs>
		</layer>
		<layer id="104" name="ActionNet/twinnet/classification/bottleneck3_0/Add" precision="FP32" type="Eltwise">
			<data operation="sum"/>
			<input>
				<port id="0">
					<dim>1</dim>
					<dim>128</dim>
					<dim>50</dim>
					<dim>85</dim>
				</port>
				<port id="1">
					<dim>1</dim>
					<dim>128</dim>
					<dim>50</dim>
					<dim>85</dim>
				</port>
			</input>
			<output>
				<port id="2">
					<dim>1</dim>
					<dim>128</dim>
					<dim>50</dim>
					<dim>85</dim>
				</port>
			</output>
		</layer>
		<layer id="105" name="ActionNet/twinnet/classification/bottleneck3_0/LeakyRelu" precision="FP32" type="ReLU">
			<data negative_slope="0.10000000149011612"/>
			<input>
				<port id="0">
					<dim>1</dim>
					<dim>128</dim>
					<dim>50</dim>
					<dim>85</dim>
				</port>
			</input>
			<output>
				<port id="1">
					<dim>1</dim>
					<dim>128</dim>
					<dim>50</dim>
					<dim>85</dim>
				</port>
			</output>
		</layer>
		<layer id="106" name="ActionNet/twinnet/classification_1/bottleneck3_1/dim_red/Conv2D" precision="FP32" type="Convolution">
			<data auto_pad="same_upper" dilations="1,1" group="1" kernel="1,1" output="32" pads_begin="0,0" pads_end="0,0" strides="1,1"/>
			<input>
				<port id="0">
					<dim>1</dim>
					<dim>128</dim>
					<dim>50</dim>
					<dim>85</dim>
				</port>
			</input>
			<output>
				<port id="3">
					<dim>1</dim>
					<dim>32</dim>
					<dim>50</dim>
					<dim>85</dim>
				</port>
			</output>
			<blobs>
				<weights offset="162264" size="16384"/>
				<biases offset="178648" size="128"/>
			</blobs>
		</layer>
		<layer id="107" name="ActionNet/twinnet/classification_1/bottleneck3_1/dim_red/ActionNet/twinnet/classification/bottleneck3_1/dim_red_fn_activation" precision="FP32" type="ReLU">
			<data negative_slope="0.10000000149011612"/>
			<input>
				<port id="0">
					<dim>1</dim>
					<dim>32</dim>
					<dim>50</dim>
					<dim>85</dim>
				</port>
			</input>
			<output>
				<port id="1">
					<dim>1</dim>
					<dim>32</dim>
					<dim>50</dim>
					<dim>85</dim>
				</port>
			</output>
		</layer>
		<layer id="108" name="ActionNet/twinnet/classification_1/bottleneck3_1/inner_conv/depthwise" precision="FP32" type="Convolution">
			<data auto_pad="same_upper" dilations="1,1" group="32" kernel="3,3" output="32" pads_begin="1,1" pads_end="1,1" strides="1,1"/>
			<input>
				<port id="0">
					<dim>1</dim>
					<dim>32</dim>
					<dim>50</dim>
					<dim>85</dim>
				</port>
			</input>
			<output>
				<port id="3">
					<dim>1</dim>
					<dim>32</dim>
					<dim>50</dim>
					<dim>85</dim>
				</port>
			</output>
			<blobs>
				<weights offset="178776" size="1152"/>
				<biases offset="179928" size="128"/>
			</blobs>
		</layer>
		<layer id="109" name="ActionNet/twinnet/classification_1/bottleneck3_1/inner_conv/ActionNet/twinnet/classification/bottleneck3_1/inner_conv_fn_activation" precision="FP32" type="ReLU">
			<data negative_slope="0.10000000149011612"/>
			<input>
				<port id="0">
					<dim>1</dim>
					<dim>32</dim>
					<dim>50</dim>
					<dim>85</dim>
				</port>
			</input>
			<output>
				<port id="1">
					<dim>1</dim>
					<dim>32</dim>
					<dim>50</dim>
					<dim>85</dim>
				</port>
			</output>
		</layer>
		<layer id="110" name="ActionNet/twinnet/classification_1/bottleneck3_1/dim_inc/Conv2D" precision="FP32" type="Convolution">
			<data auto_pad="same_upper" dilations="1,1" group="1" kernel="1,1" output="128" pads_begin="0,0" pads_end="0,0" strides="1,1"/>
			<input>
				<port id="0">
					<dim>1</dim>
					<dim>32</dim>
					<dim>50</dim>
					<dim>85</dim>
				</port>
			</input>
			<output>
				<port id="3">
					<dim>1</dim>
					<dim>128</dim>
					<dim>50</dim>
					<dim>85</dim>
				</port>
			</output>
			<blobs>
				<weights offset="180056" size="16384"/>
				<biases offset="196440" size="512"/>
			</blobs>
		</layer>
		<layer id="111" name="ActionNet/twinnet/classification_1/bottleneck3_1/Add" precision="FP32" type="Eltwise">
			<data operation="sum"/>
			<input>
				<port id="0">
					<dim>1</dim>
					<dim>128</dim>
					<dim>50</dim>
					<dim>85</dim>
				</port>
				<port id="1">
					<dim>1</dim>
					<dim>128</dim>
					<dim>50</dim>
					<dim>85</dim>
				</port>
			</input>
			<output>
				<port id="2">
					<dim>1</dim>
					<dim>128</dim>
					<dim>50</dim>
					<dim>85</dim>
				</port>
			</output>
		</layer>
		<layer id="112" name="ActionNet/twinnet/classification_1/bottleneck3_1/LeakyRelu" precision="FP32" type="ReLU">
			<data negative_slope="0.10000000149011612"/>
			<input>
				<port id="0">
					<dim>1</dim>
					<dim>128</dim>
					<dim>50</dim>
					<dim>85</dim>
				</port>
			</input>
			<output>
				<port id="1">
					<dim>1</dim>
					<dim>128</dim>
					<dim>50</dim>
					<dim>85</dim>
				</port>
			</output>
		</layer>
		<layer id="113" name="ActionNet/twinnet/classification_2/bottleneck3_2/dim_red/Conv2D" precision="FP32" type="Convolution">
			<data auto_pad="same_upper" dilations="1,1" group="1" kernel="1,1" output="32" pads_begin="0,0" pads_end="0,0" strides="1,1"/>
			<input>
				<port id="0">
					<dim>1</dim>
					<dim>128</dim>
					<dim>50</dim>
					<dim>85</dim>
				</port>
			</input>
			<output>
				<port id="3">
					<dim>1</dim>
					<dim>32</dim>
					<dim>50</dim>
					<dim>85</dim>
				</port>
			</output>
			<blobs>
				<weights offset="196952" size="16384"/>
				<biases offset="213336" size="128"/>
			</blobs>
		</layer>
		<layer id="114" name="ActionNet/twinnet/classification_2/bottleneck3_2/dim_red/ActionNet/twinnet/classification/bottleneck3_2/dim_red_fn_activation" precision="FP32" type="ReLU">
			<data negative_slope="0.10000000149011612"/>
			<input>
				<port id="0">
					<dim>1</dim>
					<dim>32</dim>
					<dim>50</dim>
					<dim>85</dim>
				</port>
			</input>
			<output>
				<port id="1">
					<dim>1</dim>
					<dim>32</dim>
					<dim>50</dim>
					<dim>85</dim>
				</port>
			</output>
		</layer>
		<layer id="115" name="ActionNet/twinnet/classification_2/bottleneck3_2/inner_conv/depthwise" precision="FP32" type="Convolution">
			<data auto_pad="same_upper" dilations="1,1" group="32" kernel="3,3" output="32" pads_begin="1,1" pads_end="1,1" strides="1,1"/>
			<input>
				<port id="0">
					<dim>1</dim>
					<dim>32</dim>
					<dim>50</dim>
					<dim>85</dim>
				</port>
			</input>
			<output>
				<port id="3">
					<dim>1</dim>
					<dim>32</dim>
					<dim>50</dim>
					<dim>85</dim>
				</port>
			</output>
			<blobs>
				<weights offset="213464" size="1152"/>
				<biases offset="214616" size="128"/>
			</blobs>
		</layer>
		<layer id="116" name="ActionNet/twinnet/classification_2/bottleneck3_2/inner_conv/ActionNet/twinnet/classification/bottleneck3_2/inner_conv_fn_activation" precision="FP32" type="ReLU">
			<data negative_slope="0.10000000149011612"/>
			<input>
				<port id="0">
					<dim>1</dim>
					<dim>32</dim>
					<dim>50</dim>
					<dim>85</dim>
				</port>
			</input>
			<output>
				<port id="1">
					<dim>1</dim>
					<dim>32</dim>
					<dim>50</dim>
					<dim>85</dim>
				</port>
			</output>
		</layer>
		<layer id="117" name="ActionNet/twinnet/classification_2/bottleneck3_2/dim_inc/Conv2D" precision="FP32" type="Convolution">
			<data auto_pad="same_upper" dilations="1,1" group="1" kernel="1,1" output="128" pads_begin="0,0" pads_end="0,0" strides="1,1"/>
			<input>
				<port id="0">
					<dim>1</dim>
					<dim>32</dim>
					<dim>50</dim>
					<dim>85</dim>
				</port>
			</input>
			<output>
				<port id="3">
					<dim>1</dim>
					<dim>128</dim>
					<dim>50</dim>
					<dim>85</dim>
				</port>
			</output>
			<blobs>
				<weights offset="214744" size="16384"/>
				<biases offset="231128" size="512"/>
			</blobs>
		</layer>
		<layer id="118" name="ActionNet/twinnet/classification_2/bottleneck3_2/Add" precision="FP32" type="Eltwise">
			<data operation="sum"/>
			<input>
				<port id="0">
					<dim>1</dim>
					<dim>128</dim>
					<dim>50</dim>
					<dim>85</dim>
				</port>
				<port id="1">
					<dim>1</dim>
					<dim>128</dim>
					<dim>50</dim>
					<dim>85</dim>
				</port>
			</input>
			<output>
				<port id="2">
					<dim>1</dim>
					<dim>128</dim>
					<dim>50</dim>
					<dim>85</dim>
				</port>
			</output>
		</layer>
		<layer id="119" name="ActionNet/twinnet/classification_2/bottleneck3_2/LeakyRelu" precision="FP32" type="ReLU">
			<data negative_slope="0.10000000149011612"/>
			<input>
				<port id="0">
					<dim>1</dim>
					<dim>128</dim>
					<dim>50</dim>
					<dim>85</dim>
				</port>
			</input>
			<output>
				<port id="1">
					<dim>1</dim>
					<dim>128</dim>
					<dim>50</dim>
					<dim>85</dim>
				</port>
			</output>
		</layer>
		<layer id="120" name="ActionNet/twinnet/classification_3/bottleneck3_3/dim_red/Conv2D" precision="FP32" type="Convolution">
			<data auto_pad="same_upper" dilations="1,1" group="1" kernel="1,1" output="32" pads_begin="0,0" pads_end="0,0" strides="1,1"/>
			<input>
				<port id="0">
					<dim>1</dim>
					<dim>128</dim>
					<dim>50</dim>
					<dim>85</dim>
				</port>
			</input>
			<output>
				<port id="3">
					<dim>1</dim>
					<dim>32</dim>
					<dim>50</dim>
					<dim>85</dim>
				</port>
			</output>
			<blobs>
				<weights offset="231640" size="16384"/>
				<biases offset="248024" size="128"/>
			</blobs>
		</layer>
		<layer id="121" name="ActionNet/twinnet/classification_3/bottleneck3_3/dim_red/ActionNet/twinnet/classification/bottleneck3_3/dim_red_fn_activation" precision="FP32" type="ReLU">
			<data negative_slope="0.10000000149011612"/>
			<input>
				<port id="0">
					<dim>1</dim>
					<dim>32</dim>
					<dim>50</dim>
					<dim>85</dim>
				</port>
			</input>
			<output>
				<port id="1">
					<dim>1</dim>
					<dim>32</dim>
					<dim>50</dim>
					<dim>85</dim>
				</port>
			</output>
		</layer>
		<layer id="122" name="ActionNet/twinnet/classification_3/bottleneck3_3/inner_conv/depthwise" precision="FP32" type="Convolution">
			<data auto_pad="same_upper" dilations="1,1" group="32" kernel="3,3" output="32" pads_begin="1,1" pads_end="1,1" strides="1,1"/>
			<input>
				<port id="0">
					<dim>1</dim>
					<dim>32</dim>
					<dim>50</dim>
					<dim>85</dim>
				</port>
			</input>
			<output>
				<port id="3">
					<dim>1</dim>
					<dim>32</dim>
					<dim>50</dim>
					<dim>85</dim>
				</port>
			</output>
			<blobs>
				<weights offset="248152" size="1152"/>
				<biases offset="249304" size="128"/>
			</blobs>
		</layer>
		<layer id="123" name="ActionNet/twinnet/classification_3/bottleneck3_3/inner_conv/ActionNet/twinnet/classification/bottleneck3_3/inner_conv_fn_activation" precision="FP32" type="ReLU">
			<data negative_slope="0.10000000149011612"/>
			<input>
				<port id="0">
					<dim>1</dim>
					<dim>32</dim>
					<dim>50</dim>
					<dim>85</dim>
				</port>
			</input>
			<output>
				<port id="1">
					<dim>1</dim>
					<dim>32</dim>
					<dim>50</dim>
					<dim>85</dim>
				</port>
			</output>
		</layer>
		<layer id="124" name="ActionNet/twinnet/classification_3/bottleneck3_3/dim_inc/Conv2D" precision="FP32" type="Convolution">
			<data auto_pad="same_upper" dilations="1,1" group="1" kernel="1,1" output="128" pads_begin="0,0" pads_end="0,0" strides="1,1"/>
			<input>
				<port id="0">
					<dim>1</dim>
					<dim>32</dim>
					<dim>50</dim>
					<dim>85</dim>
				</port>
			</input>
			<output>
				<port id="3">
					<dim>1</dim>
					<dim>128</dim>
					<dim>50</dim>
					<dim>85</dim>
				</port>
			</output>
			<blobs>
				<weights offset="249432" size="16384"/>
				<biases offset="265816" size="512"/>
			</blobs>
		</layer>
		<layer id="125" name="ActionNet/twinnet/classification_3/bottleneck3_3/Add" precision="FP32" type="Eltwise">
			<data operation="sum"/>
			<input>
				<port id="0">
					<dim>1</dim>
					<dim>128</dim>
					<dim>50</dim>
					<dim>85</dim>
				</port>
				<port id="1">
					<dim>1</dim>
					<dim>128</dim>
					<dim>50</dim>
					<dim>85</dim>
				</port>
			</input>
			<output>
				<port id="2">
					<dim>1</dim>
					<dim>128</dim>
					<dim>50</dim>
					<dim>85</dim>
				</port>
			</output>
		</layer>
		<layer id="126" name="ActionNet/twinnet/classification_3/bottleneck3_3/LeakyRelu" precision="FP32" type="ReLU">
			<data negative_slope="0.10000000149011612"/>
			<input>
				<port id="0">
					<dim>1</dim>
					<dim>128</dim>
					<dim>50</dim>
					<dim>85</dim>
				</port>
			</input>
			<output>
				<port id="1">
					<dim>1</dim>
					<dim>128</dim>
					<dim>50</dim>
					<dim>85</dim>
				</port>
			</output>
		</layer>
		<layer id="127" name="ActionNet/twinnet/bottleneck3_3/bridge/left_bridge/mix/Conv2D" precision="FP32" type="Convolution">
			<data auto_pad="same_upper" dilations="1,1" group="1" kernel="1,1" output="128" pads_begin="0,0" pads_end="0,0" strides="1,1"/>
			<input>
				<port id="0">
					<dim>1</dim>
					<dim>128</dim>
					<dim>50</dim>
					<dim>85</dim>
				</port>
			</input>
			<output>
				<port id="3">
					<dim>1</dim>
					<dim>128</dim>
					<dim>50</dim>
					<dim>85</dim>
				</port>
			</output>
			<blobs>
				<weights offset="266328" size="65536"/>
				<biases offset="331864" size="512"/>
			</blobs>
		</layer>
		<layer id="128" name="ActionNet/twinnet/detection/bottleneck3_0/dim_red/Conv2D" precision="FP32" type="Convolution">
			<data auto_pad="same_upper" dilations="1,1" group="1" kernel="1,1" output="32" pads_begin="0,0" pads_end="0,0" strides="1,1"/>
			<input>
				<port id="0">
					<dim>1</dim>
					<dim>64</dim>
					<dim>100</dim>
					<dim>170</dim>
				</port>
			</input>
			<output>
				<port id="3">
					<dim>1</dim>
					<dim>32</dim>
					<dim>100</dim>
					<dim>170</dim>
				</port>
			</output>
			<blobs>
				<weights offset="332376" size="8192"/>
				<biases offset="340568" size="128"/>
			</blobs>
		</layer>
		<layer id="129" name="ActionNet/twinnet/detection/bottleneck3_0/dim_red/ActionNet/twinnet/detection/bottleneck3_0/dim_red_fn_activation" precision="FP32" type="ReLU">
			<data negative_slope="0.10000000149011612"/>
			<input>
				<port id="0">
					<dim>1</dim>
					<dim>32</dim>
					<dim>100</dim>
					<dim>170</dim>
				</port>
			</input>
			<output>
				<port id="1">
					<dim>1</dim>
					<dim>32</dim>
					<dim>100</dim>
					<dim>170</dim>
				</port>
			</output>
		</layer>
		<layer id="130" name="ActionNet/twinnet/detection/bottleneck3_0/inner_conv/depthwise" precision="FP32" type="Convolution">
			<data auto_pad="same_upper" dilations="1,1" group="32" kernel="3,3" output="32" pads_begin="0,0" pads_end="1,1" strides="2,2"/>
			<input>
				<port id="0">
					<dim>1</dim>
					<dim>32</dim>
					<dim>100</dim>
					<dim>170</dim>
				</port>
			</input>
			<output>
				<port id="3">
					<dim>1</dim>
					<dim>32</dim>
					<dim>50</dim>
					<dim>85</dim>
				</port>
			</output>
			<blobs>
				<weights offset="340696" size="1152"/>
				<biases offset="341848" size="128"/>
			</blobs>
		</layer>
		<layer id="131" name="ActionNet/twinnet/detection/bottleneck3_0/inner_conv/ActionNet/twinnet/detection/bottleneck3_0/inner_conv_fn_activation" precision="FP32" type="ReLU">
			<data negative_slope="0.10000000149011612"/>
			<input>
				<port id="0">
					<dim>1</dim>
					<dim>32</dim>
					<dim>50</dim>
					<dim>85</dim>
				</port>
			</input>
			<output>
				<port id="1">
					<dim>1</dim>
					<dim>32</dim>
					<dim>50</dim>
					<dim>85</dim>
				</port>
			</output>
		</layer>
		<layer id="132" name="ActionNet/twinnet/detection/bottleneck3_0/dim_inc/Conv2D" precision="FP32" type="Convolution">
			<data auto_pad="same_upper" dilations="1,1" group="1" kernel="1,1" output="128" pads_begin="0,0" pads_end="0,0" strides="1,1"/>
			<input>
				<port id="0">
					<dim>1</dim>
					<dim>32</dim>
					<dim>50</dim>
					<dim>85</dim>
				</port>
			</input>
			<output>
				<port id="3">
					<dim>1</dim>
					<dim>128</dim>
					<dim>50</dim>
					<dim>85</dim>
				</port>
			</output>
			<blobs>
				<weights offset="341976" size="16384"/>
				<biases offset="358360" size="512"/>
			</blobs>
		</layer>
		<layer id="133" name="ActionNet/twinnet/detection/bottleneck3_0/max_pool/MaxPool" precision="FP32" type="Pooling">
			<data auto_pad="same_upper" exclude-pad="true" kernel="2,2" pads_begin="0,0" pads_end="0,0" pool-method="max" strides="2,2"/>
			<input>
				<port id="0">
					<dim>1</dim>
					<dim>64</dim>
					<dim>100</dim>
					<dim>170</dim>
				</port>
			</input>
			<output>
				<port id="1">
					<dim>1</dim>
					<dim>64</dim>
					<dim>50</dim>
					<dim>85</dim>
				</port>
			</output>
		</layer>
		<layer id="134" name="ActionNet/twinnet/detection/bottleneck3_0/skip_conv/Conv2D" precision="FP32" type="Convolution">
			<data auto_pad="same_upper" dilations="1,1" group="1" kernel="1,1" output="128" pads_begin="0,0" pads_end="0,0" strides="1,1"/>
			<input>
				<port id="0">
					<dim>1</dim>
					<dim>64</dim>
					<dim>50</dim>
					<dim>85</dim>
				</port>
			</input>
			<output>
				<port id="3">
					<dim>1</dim>
					<dim>128</dim>
					<dim>50</dim>
					<dim>85</dim>
				</port>
			</output>
			<blobs>
				<weights offset="358872" size="32768"/>
				<biases offset="391640" size="512"/>
			</blobs>
		</layer>
		<layer id="135" name="ActionNet/twinnet/detection/bottleneck3_0/Add" precision="FP32" type="Eltwise">
			<data operation="sum"/>
			<input>
				<port id="0">
					<dim>1</dim>
					<dim>128</dim>
					<dim>50</dim>
					<dim>85</dim>
				</port>
				<port id="1">
					<dim>1</dim>
					<dim>128</dim>
					<dim>50</dim>
					<dim>85</dim>
				</port>
			</input>
			<output>
				<port id="2">
					<dim>1</dim>
					<dim>128</dim>
					<dim>50</dim>
					<dim>85</dim>
				</port>
			</output>
		</layer>
		<layer id="136" name="ActionNet/twinnet/detection/bottleneck3_0/LeakyRelu" precision="FP32" type="ReLU">
			<data negative_slope="0.10000000149011612"/>
			<input>
				<port id="0">
					<dim>1</dim>
					<dim>128</dim>
					<dim>50</dim>
					<dim>85</dim>
				</port>
			</input>
			<output>
				<port id="1">
					<dim>1</dim>
					<dim>128</dim>
					<dim>50</dim>
					<dim>85</dim>
				</port>
			</output>
		</layer>
		<layer id="137" name="ActionNet/twinnet/detection_1/bottleneck3_1/dim_red/Conv2D" precision="FP32" type="Convolution">
			<data auto_pad="same_upper" dilations="1,1" group="1" kernel="1,1" output="32" pads_begin="0,0" pads_end="0,0" strides="1,1"/>
			<input>
				<port id="0">
					<dim>1</dim>
					<dim>128</dim>
					<dim>50</dim>
					<dim>85</dim>
				</port>
			</input>
			<output>
				<port id="3">
					<dim>1</dim>
					<dim>32</dim>
					<dim>50</dim>
					<dim>85</dim>
				</port>
			</output>
			<blobs>
				<weights offset="392152" size="16384"/>
				<biases offset="408536" size="128"/>
			</blobs>
		</layer>
		<layer id="138" name="ActionNet/twinnet/detection_1/bottleneck3_1/dim_red/ActionNet/twinnet/detection/bottleneck3_1/dim_red_fn_activation" precision="FP32" type="ReLU">
			<data negative_slope="0.10000000149011612"/>
			<input>
				<port id="0">
					<dim>1</dim>
					<dim>32</dim>
					<dim>50</dim>
					<dim>85</dim>
				</port>
			</input>
			<output>
				<port id="1">
					<dim>1</dim>
					<dim>32</dim>
					<dim>50</dim>
					<dim>85</dim>
				</port>
			</output>
		</layer>
		<layer id="139" name="ActionNet/twinnet/detection_1/bottleneck3_1/inner_conv/depthwise" precision="FP32" type="Convolution">
			<data auto_pad="same_upper" dilations="1,1" group="32" kernel="3,3" output="32" pads_begin="1,1" pads_end="1,1" strides="1,1"/>
			<input>
				<port id="0">
					<dim>1</dim>
					<dim>32</dim>
					<dim>50</dim>
					<dim>85</dim>
				</port>
			</input>
			<output>
				<port id="3">
					<dim>1</dim>
					<dim>32</dim>
					<dim>50</dim>
					<dim>85</dim>
				</port>
			</output>
			<blobs>
				<weights offset="408664" size="1152"/>
				<biases offset="409816" size="128"/>
			</blobs>
		</layer>
		<layer id="140" name="ActionNet/twinnet/detection_1/bottleneck3_1/inner_conv/ActionNet/twinnet/detection/bottleneck3_1/inner_conv_fn_activation" precision="FP32" type="ReLU">
			<data negative_slope="0.10000000149011612"/>
			<input>
				<port id="0">
					<dim>1</dim>
					<dim>32</dim>
					<dim>50</dim>
					<dim>85</dim>
				</port>
			</input>
			<output>
				<port id="1">
					<dim>1</dim>
					<dim>32</dim>
					<dim>50</dim>
					<dim>85</dim>
				</port>
			</output>
		</layer>
		<layer id="141" name="ActionNet/twinnet/detection_1/bottleneck3_1/dim_inc/Conv2D" precision="FP32" type="Convolution">
			<data auto_pad="same_upper" dilations="1,1" group="1" kernel="1,1" output="128" pads_begin="0,0" pads_end="0,0" strides="1,1"/>
			<input>
				<port id="0">
					<dim>1</dim>
					<dim>32</dim>
					<dim>50</dim>
					<dim>85</dim>
				</port>
			</input>
			<output>
				<port id="3">
					<dim>1</dim>
					<dim>128</dim>
					<dim>50</dim>
					<dim>85</dim>
				</port>
			</output>
			<blobs>
				<weights offset="409944" size="16384"/>
				<biases offset="426328" size="512"/>
			</blobs>
		</layer>
		<layer id="142" name="ActionNet/twinnet/detection_1/bottleneck3_1/Add" precision="FP32" type="Eltwise">
			<data operation="sum"/>
			<input>
				<port id="0">
					<dim>1</dim>
					<dim>128</dim>
					<dim>50</dim>
					<dim>85</dim>
				</port>
				<port id="1">
					<dim>1</dim>
					<dim>128</dim>
					<dim>50</dim>
					<dim>85</dim>
				</port>
			</input>
			<output>
				<port id="2">
					<dim>1</dim>
					<dim>128</dim>
					<dim>50</dim>
					<dim>85</dim>
				</port>
			</output>
		</layer>
		<layer id="143" name="ActionNet/twinnet/detection_1/bottleneck3_1/LeakyRelu" precision="FP32" type="ReLU">
			<data negative_slope="0.10000000149011612"/>
			<input>
				<port id="0">
					<dim>1</dim>
					<dim>128</dim>
					<dim>50</dim>
					<dim>85</dim>
				</port>
			</input>
			<output>
				<port id="1">
					<dim>1</dim>
					<dim>128</dim>
					<dim>50</dim>
					<dim>85</dim>
				</port>
			</output>
		</layer>
		<layer id="144" name="ActionNet/twinnet/detection_2/bottleneck3_2/dim_red/Conv2D" precision="FP32" type="Convolution">
			<data auto_pad="same_upper" dilations="1,1" group="1" kernel="1,1" output="32" pads_begin="0,0" pads_end="0,0" strides="1,1"/>
			<input>
				<port id="0">
					<dim>1</dim>
					<dim>128</dim>
					<dim>50</dim>
					<dim>85</dim>
				</port>
			</input>
			<output>
				<port id="3">
					<dim>1</dim>
					<dim>32</dim>
					<dim>50</dim>
					<dim>85</dim>
				</port>
			</output>
			<blobs>
				<weights offset="426840" size="16384"/>
				<biases offset="443224" size="128"/>
			</blobs>
		</layer>
		<layer id="145" name="ActionNet/twinnet/detection_2/bottleneck3_2/dim_red/ActionNet/twinnet/detection/bottleneck3_2/dim_red_fn_activation" precision="FP32" type="ReLU">
			<data negative_slope="0.10000000149011612"/>
			<input>
				<port id="0">
					<dim>1</dim>
					<dim>32</dim>
					<dim>50</dim>
					<dim>85</dim>
				</port>
			</input>
			<output>
				<port id="1">
					<dim>1</dim>
					<dim>32</dim>
					<dim>50</dim>
					<dim>85</dim>
				</port>
			</output>
		</layer>
		<layer id="146" name="ActionNet/twinnet/detection_2/bottleneck3_2/inner_conv/depthwise" precision="FP32" type="Convolution">
			<data auto_pad="same_upper" dilations="1,1" group="32" kernel="3,3" output="32" pads_begin="1,1" pads_end="1,1" strides="1,1"/>
			<input>
				<port id="0">
					<dim>1</dim>
					<dim>32</dim>
					<dim>50</dim>
					<dim>85</dim>
				</port>
			</input>
			<output>
				<port id="3">
					<dim>1</dim>
					<dim>32</dim>
					<dim>50</dim>
					<dim>85</dim>
				</port>
			</output>
			<blobs>
				<weights offset="443352" size="1152"/>
				<biases offset="444504" size="128"/>
			</blobs>
		</layer>
		<layer id="147" name="ActionNet/twinnet/detection_2/bottleneck3_2/inner_conv/ActionNet/twinnet/detection/bottleneck3_2/inner_conv_fn_activation" precision="FP32" type="ReLU">
			<data negative_slope="0.10000000149011612"/>
			<input>
				<port id="0">
					<dim>1</dim>
					<dim>32</dim>
					<dim>50</dim>
					<dim>85</dim>
				</port>
			</input>
			<output>
				<port id="1">
					<dim>1</dim>
					<dim>32</dim>
					<dim>50</dim>
					<dim>85</dim>
				</port>
			</output>
		</layer>
		<layer id="148" name="ActionNet/twinnet/detection_2/bottleneck3_2/dim_inc/Conv2D" precision="FP32" type="Convolution">
			<data auto_pad="same_upper" dilations="1,1" group="1" kernel="1,1" output="128" pads_begin="0,0" pads_end="0,0" strides="1,1"/>
			<input>
				<port id="0">
					<dim>1</dim>
					<dim>32</dim>
					<dim>50</dim>
					<dim>85</dim>
				</port>
			</input>
			<output>
				<port id="3">
					<dim>1</dim>
					<dim>128</dim>
					<dim>50</dim>
					<dim>85</dim>
				</port>
			</output>
			<blobs>
				<weights offset="444632" size="16384"/>
				<biases offset="461016" size="512"/>
			</blobs>
		</layer>
		<layer id="149" name="ActionNet/twinnet/detection_2/bottleneck3_2/Add" precision="FP32" type="Eltwise">
			<data operation="sum"/>
			<input>
				<port id="0">
					<dim>1</dim>
					<dim>128</dim>
					<dim>50</dim>
					<dim>85</dim>
				</port>
				<port id="1">
					<dim>1</dim>
					<dim>128</dim>
					<dim>50</dim>
					<dim>85</dim>
				</port>
			</input>
			<output>
				<port id="2">
					<dim>1</dim>
					<dim>128</dim>
					<dim>50</dim>
					<dim>85</dim>
				</port>
			</output>
		</layer>
		<layer id="150" name="ActionNet/twinnet/detection_2/bottleneck3_2/LeakyRelu" precision="FP32" type="ReLU">
			<data negative_slope="0.10000000149011612"/>
			<input>
				<port id="0">
					<dim>1</dim>
					<dim>128</dim>
					<dim>50</dim>
					<dim>85</dim>
				</port>
			</input>
			<output>
				<port id="1">
					<dim>1</dim>
					<dim>128</dim>
					<dim>50</dim>
					<dim>85</dim>
				</port>
			</output>
		</layer>
		<layer id="151" name="ActionNet/twinnet/detection_3/bottleneck3_3/dim_red/Conv2D" precision="FP32" type="Convolution">
			<data auto_pad="same_upper" dilations="1,1" group="1" kernel="1,1" output="32" pads_begin="0,0" pads_end="0,0" strides="1,1"/>
			<input>
				<port id="0">
					<dim>1</dim>
					<dim>128</dim>
					<dim>50</dim>
					<dim>85</dim>
				</port>
			</input>
			<output>
				<port id="3">
					<dim>1</dim>
					<dim>32</dim>
					<dim>50</dim>
					<dim>85</dim>
				</port>
			</output>
			<blobs>
				<weights offset="461528" size="16384"/>
				<biases offset="477912" size="128"/>
			</blobs>
		</layer>
		<layer id="152" name="ActionNet/twinnet/detection_3/bottleneck3_3/dim_red/ActionNet/twinnet/detection/bottleneck3_3/dim_red_fn_activation" precision="FP32" type="ReLU">
			<data negative_slope="0.10000000149011612"/>
			<input>
				<port id="0">
					<dim>1</dim>
					<dim>32</dim>
					<dim>50</dim>
					<dim>85</dim>
				</port>
			</input>
			<output>
				<port id="1">
					<dim>1</dim>
					<dim>32</dim>
					<dim>50</dim>
					<dim>85</dim>
				</port>
			</output>
		</layer>
		<layer id="153" name="ActionNet/twinnet/detection_3/bottleneck3_3/inner_conv/depthwise" precision="FP32" type="Convolution">
			<data auto_pad="same_upper" dilations="1,1" group="32" kernel="3,3" output="32" pads_begin="1,1" pads_end="1,1" strides="1,1"/>
			<input>
				<port id="0">
					<dim>1</dim>
					<dim>32</dim>
					<dim>50</dim>
					<dim>85</dim>
				</port>
			</input>
			<output>
				<port id="3">
					<dim>1</dim>
					<dim>32</dim>
					<dim>50</dim>
					<dim>85</dim>
				</port>
			</output>
			<blobs>
				<weights offset="478040" size="1152"/>
				<biases offset="479192" size="128"/>
			</blobs>
		</layer>
		<layer id="154" name="ActionNet/twinnet/detection_3/bottleneck3_3/inner_conv/ActionNet/twinnet/detection/bottleneck3_3/inner_conv_fn_activation" precision="FP32" type="ReLU">
			<data negative_slope="0.10000000149011612"/>
			<input>
				<port id="0">
					<dim>1</dim>
					<dim>32</dim>
					<dim>50</dim>
					<dim>85</dim>
				</port>
			</input>
			<output>
				<port id="1">
					<dim>1</dim>
					<dim>32</dim>
					<dim>50</dim>
					<dim>85</dim>
				</port>
			</output>
		</layer>
		<layer id="155" name="ActionNet/twinnet/detection_3/bottleneck3_3/dim_inc/Conv2D" precision="FP32" type="Convolution">
			<data auto_pad="same_upper" dilations="1,1" group="1" kernel="1,1" output="128" pads_begin="0,0" pads_end="0,0" strides="1,1"/>
			<input>
				<port id="0">
					<dim>1</dim>
					<dim>32</dim>
					<dim>50</dim>
					<dim>85</dim>
				</port>
			</input>
			<output>
				<port id="3">
					<dim>1</dim>
					<dim>128</dim>
					<dim>50</dim>
					<dim>85</dim>
				</port>
			</output>
			<blobs>
				<weights offset="479320" size="16384"/>
				<biases offset="495704" size="512"/>
			</blobs>
		</layer>
		<layer id="156" name="ActionNet/twinnet/detection_3/bottleneck3_3/Add" precision="FP32" type="Eltwise">
			<data operation="sum"/>
			<input>
				<port id="0">
					<dim>1</dim>
					<dim>128</dim>
					<dim>50</dim>
					<dim>85</dim>
				</port>
				<port id="1">
					<dim>1</dim>
					<dim>128</dim>
					<dim>50</dim>
					<dim>85</dim>
				</port>
			</input>
			<output>
				<port id="2">
					<dim>1</dim>
					<dim>128</dim>
					<dim>50</dim>
					<dim>85</dim>
				</port>
			</output>
		</layer>
		<layer id="157" name="ActionNet/twinnet/detection_3/bottleneck3_3/LeakyRelu" precision="FP32" type="ReLU">
			<data negative_slope="0.10000000149011612"/>
			<input>
				<port id="0">
					<dim>1</dim>
					<dim>128</dim>
					<dim>50</dim>
					<dim>85</dim>
				</port>
			</input>
			<output>
				<port id="1">
					<dim>1</dim>
					<dim>128</dim>
					<dim>50</dim>
					<dim>85</dim>
				</port>
			</output>
		</layer>
		<layer id="158" name="ActionNet/twinnet/bottleneck3_3/bridge/left_bridge/Add" precision="FP32" type="Eltwise">
			<data operation="sum"/>
			<input>
				<port id="0">
					<dim>1</dim>
					<dim>128</dim>
					<dim>50</dim>
					<dim>85</dim>
				</port>
				<port id="1">
					<dim>1</dim>
					<dim>128</dim>
					<dim>50</dim>
					<dim>85</dim>
				</port>
			</input>
			<output>
				<port id="2">
					<dim>1</dim>
					<dim>128</dim>
					<dim>50</dim>
					<dim>85</dim>
				</port>
			</output>
		</layer>
		<layer id="159" name="ActionNet/twinnet/bottleneck3_3/bridge/left_bridge/LeakyRelu" precision="FP32" type="ReLU">
			<data negative_slope="0.10000000149011612"/>
			<input>
				<port id="0">
					<dim>1</dim>
					<dim>128</dim>
					<dim>50</dim>
					<dim>85</dim>
				</port>
			</input>
			<output>
				<port id="1">
					<dim>1</dim>
					<dim>128</dim>
					<dim>50</dim>
					<dim>85</dim>
				</port>
			</output>
		</layer>
		<layer id="160" name="ActionNet/twinnet/detection_4/bottleneck3_4/dim_red/Conv2D" precision="FP32" type="Convolution">
			<data auto_pad="same_upper" dilations="1,1" group="1" kernel="1,1" output="32" pads_begin="0,0" pads_end="0,0" strides="1,1"/>
			<input>
				<port id="0">
					<dim>1</dim>
					<dim>128</dim>
					<dim>50</dim>
					<dim>85</dim>
				</port>
			</input>
			<output>
				<port id="3">
					<dim>1</dim>
					<dim>32</dim>
					<dim>50</dim>
					<dim>85</dim>
				</port>
			</output>
			<blobs>
				<weights offset="496216" size="16384"/>
				<biases offset="512600" size="128"/>
			</blobs>
		</layer>
		<layer id="161" name="ActionNet/twinnet/detection_4/bottleneck3_4/dim_red/ActionNet/twinnet/detection/bottleneck3_4/dim_red_fn_activation" precision="FP32" type="ReLU">
			<data negative_slope="0.10000000149011612"/>
			<input>
				<port id="0">
					<dim>1</dim>
					<dim>32</dim>
					<dim>50</dim>
					<dim>85</dim>
				</port>
			</input>
			<output>
				<port id="1">
					<dim>1</dim>
					<dim>32</dim>
					<dim>50</dim>
					<dim>85</dim>
				</port>
			</output>
		</layer>
		<layer id="162" name="ActionNet/twinnet/detection_4/bottleneck3_4/inner_conv/depthwise" precision="FP32" type="Convolution">
			<data auto_pad="same_upper" dilations="1,1" group="32" kernel="3,3" output="32" pads_begin="1,1" pads_end="1,1" strides="1,1"/>
			<input>
				<port id="0">
					<dim>1</dim>
					<dim>32</dim>
					<dim>50</dim>
					<dim>85</dim>
				</port>
			</input>
			<output>
				<port id="3">
					<dim>1</dim>
					<dim>32</dim>
					<dim>50</dim>
					<dim>85</dim>
				</port>
			</output>
			<blobs>
				<weights offset="512728" size="1152"/>
				<biases offset="513880" size="128"/>
			</blobs>
		</layer>
		<layer id="163" name="ActionNet/twinnet/detection_4/bottleneck3_4/inner_conv/ActionNet/twinnet/detection/bottleneck3_4/inner_conv_fn_activation" precision="FP32" type="ReLU">
			<data negative_slope="0.10000000149011612"/>
			<input>
				<port id="0">
					<dim>1</dim>
					<dim>32</dim>
					<dim>50</dim>
					<dim>85</dim>
				</port>
			</input>
			<output>
				<port id="1">
					<dim>1</dim>
					<dim>32</dim>
					<dim>50</dim>
					<dim>85</dim>
				</port>
			</output>
		</layer>
		<layer id="164" name="ActionNet/twinnet/detection_4/bottleneck3_4/dim_inc/Conv2D" precision="FP32" type="Convolution">
			<data auto_pad="same_upper" dilations="1,1" group="1" kernel="1,1" output="128" pads_begin="0,0" pads_end="0,0" strides="1,1"/>
			<input>
				<port id="0">
					<dim>1</dim>
					<dim>32</dim>
					<dim>50</dim>
					<dim>85</dim>
				</port>
			</input>
			<output>
				<port id="3">
					<dim>1</dim>
					<dim>128</dim>
					<dim>50</dim>
					<dim>85</dim>
				</port>
			</output>
			<blobs>
				<weights offset="514008" size="16384"/>
				<biases offset="530392" size="512"/>
			</blobs>
		</layer>
		<layer id="165" name="ActionNet/twinnet/detection_4/bottleneck3_4/Add" precision="FP32" type="Eltwise">
			<data operation="sum"/>
			<input>
				<port id="0">
					<dim>1</dim>
					<dim>128</dim>
					<dim>50</dim>
					<dim>85</dim>
				</port>
				<port id="1">
					<dim>1</dim>
					<dim>128</dim>
					<dim>50</dim>
					<dim>85</dim>
				</port>
			</input>
			<output>
				<port id="2">
					<dim>1</dim>
					<dim>128</dim>
					<dim>50</dim>
					<dim>85</dim>
				</port>
			</output>
		</layer>
		<layer id="166" name="ActionNet/twinnet/detection_4/bottleneck3_4/LeakyRelu" precision="FP32" type="ReLU">
			<data negative_slope="0.10000000149011612"/>
			<input>
				<port id="0">
					<dim>1</dim>
					<dim>128</dim>
					<dim>50</dim>
					<dim>85</dim>
				</port>
			</input>
			<output>
				<port id="1">
					<dim>1</dim>
					<dim>128</dim>
					<dim>50</dim>
					<dim>85</dim>
				</port>
			</output>
		</layer>
		<layer id="167" name="ActionNet/twinnet/detection_5/bottleneck3_5/dim_red/Conv2D" precision="FP32" type="Convolution">
			<data auto_pad="same_upper" dilations="1,1" group="1" kernel="1,1" output="32" pads_begin="0,0" pads_end="0,0" strides="1,1"/>
			<input>
				<port id="0">
					<dim>1</dim>
					<dim>128</dim>
					<dim>50</dim>
					<dim>85</dim>
				</port>
			</input>
			<output>
				<port id="3">
					<dim>1</dim>
					<dim>32</dim>
					<dim>50</dim>
					<dim>85</dim>
				</port>
			</output>
			<blobs>
				<weights offset="530904" size="16384"/>
				<biases offset="547288" size="128"/>
			</blobs>
		</layer>
		<layer id="168" name="ActionNet/twinnet/detection_5/bottleneck3_5/dim_red/ActionNet/twinnet/detection/bottleneck3_5/dim_red_fn_activation" precision="FP32" type="ReLU">
			<data negative_slope="0.10000000149011612"/>
			<input>
				<port id="0">
					<dim>1</dim>
					<dim>32</dim>
					<dim>50</dim>
					<dim>85</dim>
				</port>
			</input>
			<output>
				<port id="1">
					<dim>1</dim>
					<dim>32</dim>
					<dim>50</dim>
					<dim>85</dim>
				</port>
			</output>
		</layer>
		<layer id="169" name="ActionNet/twinnet/detection_5/bottleneck3_5/inner_conv/depthwise" precision="FP32" type="Convolution">
			<data auto_pad="same_upper" dilations="1,1" group="32" kernel="3,3" output="32" pads_begin="1,1" pads_end="1,1" strides="1,1"/>
			<input>
				<port id="0">
					<dim>1</dim>
					<dim>32</dim>
					<dim>50</dim>
					<dim>85</dim>
				</port>
			</input>
			<output>
				<port id="3">
					<dim>1</dim>
					<dim>32</dim>
					<dim>50</dim>
					<dim>85</dim>
				</port>
			</output>
			<blobs>
				<weights offset="547416" size="1152"/>
				<biases offset="548568" size="128"/>
			</blobs>
		</layer>
		<layer id="170" name="ActionNet/twinnet/detection_5/bottleneck3_5/inner_conv/ActionNet/twinnet/detection/bottleneck3_5/inner_conv_fn_activation" precision="FP32" type="ReLU">
			<data negative_slope="0.10000000149011612"/>
			<input>
				<port id="0">
					<dim>1</dim>
					<dim>32</dim>
					<dim>50</dim>
					<dim>85</dim>
				</port>
			</input>
			<output>
				<port id="1">
					<dim>1</dim>
					<dim>32</dim>
					<dim>50</dim>
					<dim>85</dim>
				</port>
			</output>
		</layer>
		<layer id="171" name="ActionNet/twinnet/detection_5/bottleneck3_5/dim_inc/Conv2D" precision="FP32" type="Convolution">
			<data auto_pad="same_upper" dilations="1,1" group="1" kernel="1,1" output="128" pads_begin="0,0" pads_end="0,0" strides="1,1"/>
			<input>
				<port id="0">
					<dim>1</dim>
					<dim>32</dim>
					<dim>50</dim>
					<dim>85</dim>
				</port>
			</input>
			<output>
				<port id="3">
					<dim>1</dim>
					<dim>128</dim>
					<dim>50</dim>
					<dim>85</dim>
				</port>
			</output>
			<blobs>
				<weights offset="548696" size="16384"/>
				<biases offset="565080" size="512"/>
			</blobs>
		</layer>
		<layer id="172" name="ActionNet/twinnet/detection_5/bottleneck3_5/Add" precision="FP32" type="Eltwise">
			<data operation="sum"/>
			<input>
				<port id="0">
					<dim>1</dim>
					<dim>128</dim>
					<dim>50</dim>
					<dim>85</dim>
				</port>
				<port id="1">
					<dim>1</dim>
					<dim>128</dim>
					<dim>50</dim>
					<dim>85</dim>
				</port>
			</input>
			<output>
				<port id="2">
					<dim>1</dim>
					<dim>128</dim>
					<dim>50</dim>
					<dim>85</dim>
				</port>
			</output>
		</layer>
		<layer id="173" name="ActionNet/twinnet/detection_5/bottleneck3_5/LeakyRelu" precision="FP32" type="ReLU">
			<data negative_slope="0.10000000149011612"/>
			<input>
				<port id="0">
					<dim>1</dim>
					<dim>128</dim>
					<dim>50</dim>
					<dim>85</dim>
				</port>
			</input>
			<output>
				<port id="1">
					<dim>1</dim>
					<dim>128</dim>
					<dim>50</dim>
					<dim>85</dim>
				</port>
			</output>
		</layer>
		<layer id="174" name="ActionNet/twinnet/detection_6/bottleneck3_6/dim_red/Conv2D" precision="FP32" type="Convolution">
			<data auto_pad="same_upper" dilations="1,1" group="1" kernel="1,1" output="32" pads_begin="0,0" pads_end="0,0" strides="1,1"/>
			<input>
				<port id="0">
					<dim>1</dim>
					<dim>128</dim>
					<dim>50</dim>
					<dim>85</dim>
				</port>
			</input>
			<output>
				<port id="3">
					<dim>1</dim>
					<dim>32</dim>
					<dim>50</dim>
					<dim>85</dim>
				</port>
			</output>
			<blobs>
				<weights offset="565592" size="16384"/>
				<biases offset="581976" size="128"/>
			</blobs>
		</layer>
		<layer id="175" name="ActionNet/twinnet/detection_6/bottleneck3_6/dim_red/ActionNet/twinnet/detection/bottleneck3_6/dim_red_fn_activation" precision="FP32" type="ReLU">
			<data negative_slope="0.10000000149011612"/>
			<input>
				<port id="0">
					<dim>1</dim>
					<dim>32</dim>
					<dim>50</dim>
					<dim>85</dim>
				</port>
			</input>
			<output>
				<port id="1">
					<dim>1</dim>
					<dim>32</dim>
					<dim>50</dim>
					<dim>85</dim>
				</port>
			</output>
		</layer>
		<layer id="176" name="ActionNet/twinnet/detection_6/bottleneck3_6/inner_conv/depthwise" precision="FP32" type="Convolution">
			<data auto_pad="same_upper" dilations="1,1" group="32" kernel="3,3" output="32" pads_begin="1,1" pads_end="1,1" strides="1,1"/>
			<input>
				<port id="0">
					<dim>1</dim>
					<dim>32</dim>
					<dim>50</dim>
					<dim>85</dim>
				</port>
			</input>
			<output>
				<port id="3">
					<dim>1</dim>
					<dim>32</dim>
					<dim>50</dim>
					<dim>85</dim>
				</port>
			</output>
			<blobs>
				<weights offset="582104" size="1152"/>
				<biases offset="583256" size="128"/>
			</blobs>
		</layer>
		<layer id="177" name="ActionNet/twinnet/detection_6/bottleneck3_6/inner_conv/ActionNet/twinnet/detection/bottleneck3_6/inner_conv_fn_activation" precision="FP32" type="ReLU">
			<data negative_slope="0.10000000149011612"/>
			<input>
				<port id="0">
					<dim>1</dim>
					<dim>32</dim>
					<dim>50</dim>
					<dim>85</dim>
				</port>
			</input>
			<output>
				<port id="1">
					<dim>1</dim>
					<dim>32</dim>
					<dim>50</dim>
					<dim>85</dim>
				</port>
			</output>
		</layer>
		<layer id="178" name="ActionNet/twinnet/detection_6/bottleneck3_6/dim_inc/Conv2D" precision="FP32" type="Convolution">
			<data auto_pad="same_upper" dilations="1,1" group="1" kernel="1,1" output="128" pads_begin="0,0" pads_end="0,0" strides="1,1"/>
			<input>
				<port id="0">
					<dim>1</dim>
					<dim>32</dim>
					<dim>50</dim>
					<dim>85</dim>
				</port>
			</input>
			<output>
				<port id="3">
					<dim>1</dim>
					<dim>128</dim>
					<dim>50</dim>
					<dim>85</dim>
				</port>
			</output>
			<blobs>
				<weights offset="583384" size="16384"/>
				<biases offset="599768" size="512"/>
			</blobs>
		</layer>
		<layer id="179" name="ActionNet/twinnet/detection_6/bottleneck3_6/Add" precision="FP32" type="Eltwise">
			<data operation="sum"/>
			<input>
				<port id="0">
					<dim>1</dim>
					<dim>128</dim>
					<dim>50</dim>
					<dim>85</dim>
				</port>
				<port id="1">
					<dim>1</dim>
					<dim>128</dim>
					<dim>50</dim>
					<dim>85</dim>
				</port>
			</input>
			<output>
				<port id="2">
					<dim>1</dim>
					<dim>128</dim>
					<dim>50</dim>
					<dim>85</dim>
				</port>
			</output>
		</layer>
		<layer id="180" name="ActionNet/twinnet/detection_6/bottleneck3_6/LeakyRelu" precision="FP32" type="ReLU">
			<data negative_slope="0.10000000149011612"/>
			<input>
				<port id="0">
					<dim>1</dim>
					<dim>128</dim>
					<dim>50</dim>
					<dim>85</dim>
				</port>
			</input>
			<output>
				<port id="1">
					<dim>1</dim>
					<dim>128</dim>
					<dim>50</dim>
					<dim>85</dim>
				</port>
			</output>
		</layer>
		<layer id="181" name="ActionNet/twinnet/detection_7/bottleneck3_7/dim_red/Conv2D" precision="FP32" type="Convolution">
			<data auto_pad="same_upper" dilations="1,1" group="1" kernel="1,1" output="32" pads_begin="0,0" pads_end="0,0" strides="1,1"/>
			<input>
				<port id="0">
					<dim>1</dim>
					<dim>128</dim>
					<dim>50</dim>
					<dim>85</dim>
				</port>
			</input>
			<output>
				<port id="3">
					<dim>1</dim>
					<dim>32</dim>
					<dim>50</dim>
					<dim>85</dim>
				</port>
			</output>
			<blobs>
				<weights offset="600280" size="16384"/>
				<biases offset="616664" size="128"/>
			</blobs>
		</layer>
		<layer id="182" name="ActionNet/twinnet/detection_7/bottleneck3_7/dim_red/ActionNet/twinnet/detection/bottleneck3_7/dim_red_fn_activation" precision="FP32" type="ReLU">
			<data negative_slope="0.10000000149011612"/>
			<input>
				<port id="0">
					<dim>1</dim>
					<dim>32</dim>
					<dim>50</dim>
					<dim>85</dim>
				</port>
			</input>
			<output>
				<port id="1">
					<dim>1</dim>
					<dim>32</dim>
					<dim>50</dim>
					<dim>85</dim>
				</port>
			</output>
		</layer>
		<layer id="183" name="ActionNet/twinnet/detection_7/bottleneck3_7/inner_conv/depthwise" precision="FP32" type="Convolution">
			<data auto_pad="same_upper" dilations="1,1" group="32" kernel="3,3" output="32" pads_begin="1,1" pads_end="1,1" strides="1,1"/>
			<input>
				<port id="0">
					<dim>1</dim>
					<dim>32</dim>
					<dim>50</dim>
					<dim>85</dim>
				</port>
			</input>
			<output>
				<port id="3">
					<dim>1</dim>
					<dim>32</dim>
					<dim>50</dim>
					<dim>85</dim>
				</port>
			</output>
			<blobs>
				<weights offset="616792" size="1152"/>
				<biases offset="617944" size="128"/>
			</blobs>
		</layer>
		<layer id="184" name="ActionNet/twinnet/detection_7/bottleneck3_7/inner_conv/ActionNet/twinnet/detection/bottleneck3_7/inner_conv_fn_activation" precision="FP32" type="ReLU">
			<data negative_slope="0.10000000149011612"/>
			<input>
				<port id="0">
					<dim>1</dim>
					<dim>32</dim>
					<dim>50</dim>
					<dim>85</dim>
				</port>
			</input>
			<output>
				<port id="1">
					<dim>1</dim>
					<dim>32</dim>
					<dim>50</dim>
					<dim>85</dim>
				</port>
			</output>
		</layer>
		<layer id="185" name="ActionNet/twinnet/detection_7/bottleneck3_7/dim_inc/Conv2D" precision="FP32" type="Convolution">
			<data auto_pad="same_upper" dilations="1,1" group="1" kernel="1,1" output="128" pads_begin="0,0" pads_end="0,0" strides="1,1"/>
			<input>
				<port id="0">
					<dim>1</dim>
					<dim>32</dim>
					<dim>50</dim>
					<dim>85</dim>
				</port>
			</input>
			<output>
				<port id="3">
					<dim>1</dim>
					<dim>128</dim>
					<dim>50</dim>
					<dim>85</dim>
				</port>
			</output>
			<blobs>
				<weights offset="618072" size="16384"/>
				<biases offset="634456" size="512"/>
			</blobs>
		</layer>
		<layer id="186" name="ActionNet/twinnet/detection_7/bottleneck3_7/Add" precision="FP32" type="Eltwise">
			<data operation="sum"/>
			<input>
				<port id="0">
					<dim>1</dim>
					<dim>128</dim>
					<dim>50</dim>
					<dim>85</dim>
				</port>
				<port id="1">
					<dim>1</dim>
					<dim>128</dim>
					<dim>50</dim>
					<dim>85</dim>
				</port>
			</input>
			<output>
				<port id="2">
					<dim>1</dim>
					<dim>128</dim>
					<dim>50</dim>
					<dim>85</dim>
				</port>
			</output>
		</layer>
		<layer id="187" name="ActionNet/twinnet/detection_7/bottleneck3_7/LeakyRelu" precision="FP32" type="ReLU">
			<data negative_slope="0.10000000149011612"/>
			<input>
				<port id="0">
					<dim>1</dim>
					<dim>128</dim>
					<dim>50</dim>
					<dim>85</dim>
				</port>
			</input>
			<output>
				<port id="1">
					<dim>1</dim>
					<dim>128</dim>
					<dim>50</dim>
					<dim>85</dim>
				</port>
			</output>
		</layer>
		<layer id="188" name="ActionNet/twinnet/bottleneck3_7/bridge/right_bridge/mix/Conv2D" precision="FP32" type="Convolution">
			<data auto_pad="same_upper" dilations="1,1" group="1" kernel="1,1" output="128" pads_begin="0,0" pads_end="0,0" strides="1,1"/>
			<input>
				<port id="0">
					<dim>1</dim>
					<dim>128</dim>
					<dim>50</dim>
					<dim>85</dim>
				</port>
			</input>
			<output>
				<port id="3">
					<dim>1</dim>
					<dim>128</dim>
					<dim>50</dim>
					<dim>85</dim>
				</port>
			</output>
			<blobs>
				<weights offset="634968" size="65536"/>
				<biases offset="700504" size="512"/>
			</blobs>
		</layer>
		<layer id="189" name="ActionNet/twinnet/bottleneck3_3/bridge/right_bridge/mix/Conv2D" precision="FP32" type="Convolution">
			<data auto_pad="same_upper" dilations="1,1" group="1" kernel="1,1" output="128" pads_begin="0,0" pads_end="0,0" strides="1,1"/>
			<input>
				<port id="0">
					<dim>1</dim>
					<dim>128</dim>
					<dim>50</dim>
					<dim>85</dim>
				</port>
			</input>
			<output>
				<port id="3">
					<dim>1</dim>
					<dim>128</dim>
					<dim>50</dim>
					<dim>85</dim>
				</port>
			</output>
			<blobs>
				<weights offset="701016" size="65536"/>
				<biases offset="766552" size="512"/>
			</blobs>
		</layer>
		<layer id="190" name="ActionNet/twinnet/bottleneck3_3/bridge/right_bridge/Add" precision="FP32" type="Eltwise">
			<data operation="sum"/>
			<input>
				<port id="0">
					<dim>1</dim>
					<dim>128</dim>
					<dim>50</dim>
					<dim>85</dim>
				</port>
				<port id="1">
					<dim>1</dim>
					<dim>128</dim>
					<dim>50</dim>
					<dim>85</dim>
				</port>
			</input>
			<output>
				<port id="2">
					<dim>1</dim>
					<dim>128</dim>
					<dim>50</dim>
					<dim>85</dim>
				</port>
			</output>
		</layer>
		<layer id="191" name="ActionNet/twinnet/bottleneck3_3/bridge/right_bridge/LeakyRelu" precision="FP32" type="ReLU">
			<data negative_slope="0.10000000149011612"/>
			<input>
				<port id="0">
					<dim>1</dim>
					<dim>128</dim>
					<dim>50</dim>
					<dim>85</dim>
				</port>
			</input>
			<output>
				<port id="1">
					<dim>1</dim>
					<dim>128</dim>
					<dim>50</dim>
					<dim>85</dim>
				</port>
			</output>
		</layer>
		<layer id="192" name="ActionNet/twinnet/classification_4/bottleneck3_4/dim_red/Conv2D" precision="FP32" type="Convolution">
			<data auto_pad="same_upper" dilations="1,1" group="1" kernel="1,1" output="32" pads_begin="0,0" pads_end="0,0" strides="1,1"/>
			<input>
				<port id="0">
					<dim>1</dim>
					<dim>128</dim>
					<dim>50</dim>
					<dim>85</dim>
				</port>
			</input>
			<output>
				<port id="3">
					<dim>1</dim>
					<dim>32</dim>
					<dim>50</dim>
					<dim>85</dim>
				</port>
			</output>
			<blobs>
				<weights offset="767064" size="16384"/>
				<biases offset="783448" size="128"/>
			</blobs>
		</layer>
		<layer id="193" name="ActionNet/twinnet/classification_4/bottleneck3_4/dim_red/ActionNet/twinnet/classification/bottleneck3_4/dim_red_fn_activation" precision="FP32" type="ReLU">
			<data negative_slope="0.10000000149011612"/>
			<input>
				<port id="0">
					<dim>1</dim>
					<dim>32</dim>
					<dim>50</dim>
					<dim>85</dim>
				</port>
			</input>
			<output>
				<port id="1">
					<dim>1</dim>
					<dim>32</dim>
					<dim>50</dim>
					<dim>85</dim>
				</port>
			</output>
		</layer>
		<layer id="194" name="ActionNet/twinnet/classification_4/bottleneck3_4/inner_conv/depthwise" precision="FP32" type="Convolution">
			<data auto_pad="same_upper" dilations="1,1" group="32" kernel="3,3" output="32" pads_begin="1,1" pads_end="1,1" strides="1,1"/>
			<input>
				<port id="0">
					<dim>1</dim>
					<dim>32</dim>
					<dim>50</dim>
					<dim>85</dim>
				</port>
			</input>
			<output>
				<port id="3">
					<dim>1</dim>
					<dim>32</dim>
					<dim>50</dim>
					<dim>85</dim>
				</port>
			</output>
			<blobs>
				<weights offset="783576" size="1152"/>
				<biases offset="784728" size="128"/>
			</blobs>
		</layer>
		<layer id="195" name="ActionNet/twinnet/classification_4/bottleneck3_4/inner_conv/ActionNet/twinnet/classification/bottleneck3_4/inner_conv_fn_activation" precision="FP32" type="ReLU">
			<data negative_slope="0.10000000149011612"/>
			<input>
				<port id="0">
					<dim>1</dim>
					<dim>32</dim>
					<dim>50</dim>
					<dim>85</dim>
				</port>
			</input>
			<output>
				<port id="1">
					<dim>1</dim>
					<dim>32</dim>
					<dim>50</dim>
					<dim>85</dim>
				</port>
			</output>
		</layer>
		<layer id="196" name="ActionNet/twinnet/classification_4/bottleneck3_4/dim_inc/Conv2D" precision="FP32" type="Convolution">
			<data auto_pad="same_upper" dilations="1,1" group="1" kernel="1,1" output="128" pads_begin="0,0" pads_end="0,0" strides="1,1"/>
			<input>
				<port id="0">
					<dim>1</dim>
					<dim>32</dim>
					<dim>50</dim>
					<dim>85</dim>
				</port>
			</input>
			<output>
				<port id="3">
					<dim>1</dim>
					<dim>128</dim>
					<dim>50</dim>
					<dim>85</dim>
				</port>
			</output>
			<blobs>
				<weights offset="784856" size="16384"/>
				<biases offset="801240" size="512"/>
			</blobs>
		</layer>
		<layer id="197" name="ActionNet/twinnet/classification_4/bottleneck3_4/Add" precision="FP32" type="Eltwise">
			<data operation="sum"/>
			<input>
				<port id="0">
					<dim>1</dim>
					<dim>128</dim>
					<dim>50</dim>
					<dim>85</dim>
				</port>
				<port id="1">
					<dim>1</dim>
					<dim>128</dim>
					<dim>50</dim>
					<dim>85</dim>
				</port>
			</input>
			<output>
				<port id="2">
					<dim>1</dim>
					<dim>128</dim>
					<dim>50</dim>
					<dim>85</dim>
				</port>
			</output>
		</layer>
		<layer id="198" name="ActionNet/twinnet/classification_4/bottleneck3_4/LeakyRelu" precision="FP32" type="ReLU">
			<data negative_slope="0.10000000149011612"/>
			<input>
				<port id="0">
					<dim>1</dim>
					<dim>128</dim>
					<dim>50</dim>
					<dim>85</dim>
				</port>
			</input>
			<output>
				<port id="1">
					<dim>1</dim>
					<dim>128</dim>
					<dim>50</dim>
					<dim>85</dim>
				</port>
			</output>
		</layer>
		<layer id="199" name="ActionNet/twinnet/classification_5/bottleneck3_5/dim_red/Conv2D" precision="FP32" type="Convolution">
			<data auto_pad="same_upper" dilations="1,1" group="1" kernel="1,1" output="32" pads_begin="0,0" pads_end="0,0" strides="1,1"/>
			<input>
				<port id="0">
					<dim>1</dim>
					<dim>128</dim>
					<dim>50</dim>
					<dim>85</dim>
				</port>
			</input>
			<output>
				<port id="3">
					<dim>1</dim>
					<dim>32</dim>
					<dim>50</dim>
					<dim>85</dim>
				</port>
			</output>
			<blobs>
				<weights offset="801752" size="16384"/>
				<biases offset="818136" size="128"/>
			</blobs>
		</layer>
		<layer id="200" name="ActionNet/twinnet/classification_5/bottleneck3_5/dim_red/ActionNet/twinnet/classification/bottleneck3_5/dim_red_fn_activation" precision="FP32" type="ReLU">
			<data negative_slope="0.10000000149011612"/>
			<input>
				<port id="0">
					<dim>1</dim>
					<dim>32</dim>
					<dim>50</dim>
					<dim>85</dim>
				</port>
			</input>
			<output>
				<port id="1">
					<dim>1</dim>
					<dim>32</dim>
					<dim>50</dim>
					<dim>85</dim>
				</port>
			</output>
		</layer>
		<layer id="201" name="ActionNet/twinnet/classification_5/bottleneck3_5/inner_conv/depthwise" precision="FP32" type="Convolution">
			<data auto_pad="same_upper" dilations="1,1" group="32" kernel="3,3" output="32" pads_begin="1,1" pads_end="1,1" strides="1,1"/>
			<input>
				<port id="0">
					<dim>1</dim>
					<dim>32</dim>
					<dim>50</dim>
					<dim>85</dim>
				</port>
			</input>
			<output>
				<port id="3">
					<dim>1</dim>
					<dim>32</dim>
					<dim>50</dim>
					<dim>85</dim>
				</port>
			</output>
			<blobs>
				<weights offset="818264" size="1152"/>
				<biases offset="819416" size="128"/>
			</blobs>
		</layer>
		<layer id="202" name="ActionNet/twinnet/classification_5/bottleneck3_5/inner_conv/ActionNet/twinnet/classification/bottleneck3_5/inner_conv_fn_activation" precision="FP32" type="ReLU">
			<data negative_slope="0.10000000149011612"/>
			<input>
				<port id="0">
					<dim>1</dim>
					<dim>32</dim>
					<dim>50</dim>
					<dim>85</dim>
				</port>
			</input>
			<output>
				<port id="1">
					<dim>1</dim>
					<dim>32</dim>
					<dim>50</dim>
					<dim>85</dim>
				</port>
			</output>
		</layer>
		<layer id="203" name="ActionNet/twinnet/classification_5/bottleneck3_5/dim_inc/Conv2D" precision="FP32" type="Convolution">
			<data auto_pad="same_upper" dilations="1,1" group="1" kernel="1,1" output="128" pads_begin="0,0" pads_end="0,0" strides="1,1"/>
			<input>
				<port id="0">
					<dim>1</dim>
					<dim>32</dim>
					<dim>50</dim>
					<dim>85</dim>
				</port>
			</input>
			<output>
				<port id="3">
					<dim>1</dim>
					<dim>128</dim>
					<dim>50</dim>
					<dim>85</dim>
				</port>
			</output>
			<blobs>
				<weights offset="819544" size="16384"/>
				<biases offset="835928" size="512"/>
			</blobs>
		</layer>
		<layer id="204" name="ActionNet/twinnet/classification_5/bottleneck3_5/Add" precision="FP32" type="Eltwise">
			<data operation="sum"/>
			<input>
				<port id="0">
					<dim>1</dim>
					<dim>128</dim>
					<dim>50</dim>
					<dim>85</dim>
				</port>
				<port id="1">
					<dim>1</dim>
					<dim>128</dim>
					<dim>50</dim>
					<dim>85</dim>
				</port>
			</input>
			<output>
				<port id="2">
					<dim>1</dim>
					<dim>128</dim>
					<dim>50</dim>
					<dim>85</dim>
				</port>
			</output>
		</layer>
		<layer id="205" name="ActionNet/twinnet/classification_5/bottleneck3_5/LeakyRelu" precision="FP32" type="ReLU">
			<data negative_slope="0.10000000149011612"/>
			<input>
				<port id="0">
					<dim>1</dim>
					<dim>128</dim>
					<dim>50</dim>
					<dim>85</dim>
				</port>
			</input>
			<output>
				<port id="1">
					<dim>1</dim>
					<dim>128</dim>
					<dim>50</dim>
					<dim>85</dim>
				</port>
			</output>
		</layer>
		<layer id="206" name="ActionNet/twinnet/classification_6/bottleneck3_6/dim_red/Conv2D" precision="FP32" type="Convolution">
			<data auto_pad="same_upper" dilations="1,1" group="1" kernel="1,1" output="32" pads_begin="0,0" pads_end="0,0" strides="1,1"/>
			<input>
				<port id="0">
					<dim>1</dim>
					<dim>128</dim>
					<dim>50</dim>
					<dim>85</dim>
				</port>
			</input>
			<output>
				<port id="3">
					<dim>1</dim>
					<dim>32</dim>
					<dim>50</dim>
					<dim>85</dim>
				</port>
			</output>
			<blobs>
				<weights offset="836440" size="16384"/>
				<biases offset="852824" size="128"/>
			</blobs>
		</layer>
		<layer id="207" name="ActionNet/twinnet/classification_6/bottleneck3_6/dim_red/ActionNet/twinnet/classification/bottleneck3_6/dim_red_fn_activation" precision="FP32" type="ReLU">
			<data negative_slope="0.10000000149011612"/>
			<input>
				<port id="0">
					<dim>1</dim>
					<dim>32</dim>
					<dim>50</dim>
					<dim>85</dim>
				</port>
			</input>
			<output>
				<port id="1">
					<dim>1</dim>
					<dim>32</dim>
					<dim>50</dim>
					<dim>85</dim>
				</port>
			</output>
		</layer>
		<layer id="208" name="ActionNet/twinnet/classification_6/bottleneck3_6/inner_conv/depthwise" precision="FP32" type="Convolution">
			<data auto_pad="same_upper" dilations="1,1" group="32" kernel="3,3" output="32" pads_begin="1,1" pads_end="1,1" strides="1,1"/>
			<input>
				<port id="0">
					<dim>1</dim>
					<dim>32</dim>
					<dim>50</dim>
					<dim>85</dim>
				</port>
			</input>
			<output>
				<port id="3">
					<dim>1</dim>
					<dim>32</dim>
					<dim>50</dim>
					<dim>85</dim>
				</port>
			</output>
			<blobs>
				<weights offset="852952" size="1152"/>
				<biases offset="854104" size="128"/>
			</blobs>
		</layer>
		<layer id="209" name="ActionNet/twinnet/classification_6/bottleneck3_6/inner_conv/ActionNet/twinnet/classification/bottleneck3_6/inner_conv_fn_activation" precision="FP32" type="ReLU">
			<data negative_slope="0.10000000149011612"/>
			<input>
				<port id="0">
					<dim>1</dim>
					<dim>32</dim>
					<dim>50</dim>
					<dim>85</dim>
				</port>
			</input>
			<output>
				<port id="1">
					<dim>1</dim>
					<dim>32</dim>
					<dim>50</dim>
					<dim>85</dim>
				</port>
			</output>
		</layer>
		<layer id="210" name="ActionNet/twinnet/classification_6/bottleneck3_6/dim_inc/Conv2D" precision="FP32" type="Convolution">
			<data auto_pad="same_upper" dilations="1,1" group="1" kernel="1,1" output="128" pads_begin="0,0" pads_end="0,0" strides="1,1"/>
			<input>
				<port id="0">
					<dim>1</dim>
					<dim>32</dim>
					<dim>50</dim>
					<dim>85</dim>
				</port>
			</input>
			<output>
				<port id="3">
					<dim>1</dim>
					<dim>128</dim>
					<dim>50</dim>
					<dim>85</dim>
				</port>
			</output>
			<blobs>
				<weights offset="854232" size="16384"/>
				<biases offset="870616" size="512"/>
			</blobs>
		</layer>
		<layer id="211" name="ActionNet/twinnet/classification_6/bottleneck3_6/Add" precision="FP32" type="Eltwise">
			<data operation="sum"/>
			<input>
				<port id="0">
					<dim>1</dim>
					<dim>128</dim>
					<dim>50</dim>
					<dim>85</dim>
				</port>
				<port id="1">
					<dim>1</dim>
					<dim>128</dim>
					<dim>50</dim>
					<dim>85</dim>
				</port>
			</input>
			<output>
				<port id="2">
					<dim>1</dim>
					<dim>128</dim>
					<dim>50</dim>
					<dim>85</dim>
				</port>
			</output>
		</layer>
		<layer id="212" name="ActionNet/twinnet/classification_6/bottleneck3_6/LeakyRelu" precision="FP32" type="ReLU">
			<data negative_slope="0.10000000149011612"/>
			<input>
				<port id="0">
					<dim>1</dim>
					<dim>128</dim>
					<dim>50</dim>
					<dim>85</dim>
				</port>
			</input>
			<output>
				<port id="1">
					<dim>1</dim>
					<dim>128</dim>
					<dim>50</dim>
					<dim>85</dim>
				</port>
			</output>
		</layer>
		<layer id="213" name="ActionNet/twinnet/classification_7/bottleneck3_7/dim_red/Conv2D" precision="FP32" type="Convolution">
			<data auto_pad="same_upper" dilations="1,1" group="1" kernel="1,1" output="32" pads_begin="0,0" pads_end="0,0" strides="1,1"/>
			<input>
				<port id="0">
					<dim>1</dim>
					<dim>128</dim>
					<dim>50</dim>
					<dim>85</dim>
				</port>
			</input>
			<output>
				<port id="3">
					<dim>1</dim>
					<dim>32</dim>
					<dim>50</dim>
					<dim>85</dim>
				</port>
			</output>
			<blobs>
				<weights offset="871128" size="16384"/>
				<biases offset="887512" size="128"/>
			</blobs>
		</layer>
		<layer id="214" name="ActionNet/twinnet/classification_7/bottleneck3_7/dim_red/ActionNet/twinnet/classification/bottleneck3_7/dim_red_fn_activation" precision="FP32" type="ReLU">
			<data negative_slope="0.10000000149011612"/>
			<input>
				<port id="0">
					<dim>1</dim>
					<dim>32</dim>
					<dim>50</dim>
					<dim>85</dim>
				</port>
			</input>
			<output>
				<port id="1">
					<dim>1</dim>
					<dim>32</dim>
					<dim>50</dim>
					<dim>85</dim>
				</port>
			</output>
		</layer>
		<layer id="215" name="ActionNet/twinnet/classification_7/bottleneck3_7/inner_conv/depthwise" precision="FP32" type="Convolution">
			<data auto_pad="same_upper" dilations="1,1" group="32" kernel="3,3" output="32" pads_begin="1,1" pads_end="1,1" strides="1,1"/>
			<input>
				<port id="0">
					<dim>1</dim>
					<dim>32</dim>
					<dim>50</dim>
					<dim>85</dim>
				</port>
			</input>
			<output>
				<port id="3">
					<dim>1</dim>
					<dim>32</dim>
					<dim>50</dim>
					<dim>85</dim>
				</port>
			</output>
			<blobs>
				<weights offset="887640" size="1152"/>
				<biases offset="888792" size="128"/>
			</blobs>
		</layer>
		<layer id="216" name="ActionNet/twinnet/classification_7/bottleneck3_7/inner_conv/ActionNet/twinnet/classification/bottleneck3_7/inner_conv_fn_activation" precision="FP32" type="ReLU">
			<data negative_slope="0.10000000149011612"/>
			<input>
				<port id="0">
					<dim>1</dim>
					<dim>32</dim>
					<dim>50</dim>
					<dim>85</dim>
				</port>
			</input>
			<output>
				<port id="1">
					<dim>1</dim>
					<dim>32</dim>
					<dim>50</dim>
					<dim>85</dim>
				</port>
			</output>
		</layer>
		<layer id="217" name="ActionNet/twinnet/classification_7/bottleneck3_7/dim_inc/Conv2D" precision="FP32" type="Convolution">
			<data auto_pad="same_upper" dilations="1,1" group="1" kernel="1,1" output="128" pads_begin="0,0" pads_end="0,0" strides="1,1"/>
			<input>
				<port id="0">
					<dim>1</dim>
					<dim>32</dim>
					<dim>50</dim>
					<dim>85</dim>
				</port>
			</input>
			<output>
				<port id="3">
					<dim>1</dim>
					<dim>128</dim>
					<dim>50</dim>
					<dim>85</dim>
				</port>
			</output>
			<blobs>
				<weights offset="888920" size="16384"/>
				<biases offset="905304" size="512"/>
			</blobs>
		</layer>
		<layer id="218" name="ActionNet/twinnet/classification_7/bottleneck3_7/Add" precision="FP32" type="Eltwise">
			<data operation="sum"/>
			<input>
				<port id="0">
					<dim>1</dim>
					<dim>128</dim>
					<dim>50</dim>
					<dim>85</dim>
				</port>
				<port id="1">
					<dim>1</dim>
					<dim>128</dim>
					<dim>50</dim>
					<dim>85</dim>
				</port>
			</input>
			<output>
				<port id="2">
					<dim>1</dim>
					<dim>128</dim>
					<dim>50</dim>
					<dim>85</dim>
				</port>
			</output>
		</layer>
		<layer id="219" name="ActionNet/twinnet/classification_7/bottleneck3_7/LeakyRelu" precision="FP32" type="ReLU">
			<data negative_slope="0.10000000149011612"/>
			<input>
				<port id="0">
					<dim>1</dim>
					<dim>128</dim>
					<dim>50</dim>
					<dim>85</dim>
				</port>
			</input>
			<output>
				<port id="1">
					<dim>1</dim>
					<dim>128</dim>
					<dim>50</dim>
					<dim>85</dim>
				</port>
			</output>
		</layer>
		<layer id="220" name="ActionNet/twinnet/bottleneck3_7/bridge/right_bridge/Add" precision="FP32" type="Eltwise">
			<data operation="sum"/>
			<input>
				<port id="0">
					<dim>1</dim>
					<dim>128</dim>
					<dim>50</dim>
					<dim>85</dim>
				</port>
				<port id="1">
					<dim>1</dim>
					<dim>128</dim>
					<dim>50</dim>
					<dim>85</dim>
				</port>
			</input>
			<output>
				<port id="2">
					<dim>1</dim>
					<dim>128</dim>
					<dim>50</dim>
					<dim>85</dim>
				</port>
			</output>
		</layer>
		<layer id="221" name="ActionNet/twinnet/bottleneck3_7/bridge/right_bridge/LeakyRelu" precision="FP32" type="ReLU">
			<data negative_slope="0.10000000149011612"/>
			<input>
				<port id="0">
					<dim>1</dim>
					<dim>128</dim>
					<dim>50</dim>
					<dim>85</dim>
				</port>
			</input>
			<output>
				<port id="1">
					<dim>1</dim>
					<dim>128</dim>
					<dim>50</dim>
					<dim>85</dim>
				</port>
			</output>
		</layer>
		<layer id="222" name="ActionNet/twinnet/classification_8/bottleneck3_8/dim_red/Conv2D" precision="FP32" type="Convolution">
			<data auto_pad="same_upper" dilations="1,1" group="1" kernel="1,1" output="32" pads_begin="0,0" pads_end="0,0" strides="1,1"/>
			<input>
				<port id="0">
					<dim>1</dim>
					<dim>128</dim>
					<dim>50</dim>
					<dim>85</dim>
				</port>
			</input>
			<output>
				<port id="3">
					<dim>1</dim>
					<dim>32</dim>
					<dim>50</dim>
					<dim>85</dim>
				</port>
			</output>
			<blobs>
				<weights offset="905816" size="16384"/>
				<biases offset="922200" size="128"/>
			</blobs>
		</layer>
		<layer id="223" name="ActionNet/twinnet/classification_8/bottleneck3_8/dim_red/ActionNet/twinnet/classification/bottleneck3_8/dim_red_fn_activation" precision="FP32" type="ReLU">
			<data negative_slope="0.10000000149011612"/>
			<input>
				<port id="0">
					<dim>1</dim>
					<dim>32</dim>
					<dim>50</dim>
					<dim>85</dim>
				</port>
			</input>
			<output>
				<port id="1">
					<dim>1</dim>
					<dim>32</dim>
					<dim>50</dim>
					<dim>85</dim>
				</port>
			</output>
		</layer>
		<layer id="224" name="ActionNet/twinnet/classification_8/bottleneck3_8/inner_conv/depthwise" precision="FP32" type="Convolution">
			<data auto_pad="same_upper" dilations="1,1" group="32" kernel="3,3" output="32" pads_begin="1,1" pads_end="1,1" strides="1,1"/>
			<input>
				<port id="0">
					<dim>1</dim>
					<dim>32</dim>
					<dim>50</dim>
					<dim>85</dim>
				</port>
			</input>
			<output>
				<port id="3">
					<dim>1</dim>
					<dim>32</dim>
					<dim>50</dim>
					<dim>85</dim>
				</port>
			</output>
			<blobs>
				<weights offset="922328" size="1152"/>
				<biases offset="923480" size="128"/>
			</blobs>
		</layer>
		<layer id="225" name="ActionNet/twinnet/classification_8/bottleneck3_8/inner_conv/ActionNet/twinnet/classification/bottleneck3_8/inner_conv_fn_activation" precision="FP32" type="ReLU">
			<data negative_slope="0.10000000149011612"/>
			<input>
				<port id="0">
					<dim>1</dim>
					<dim>32</dim>
					<dim>50</dim>
					<dim>85</dim>
				</port>
			</input>
			<output>
				<port id="1">
					<dim>1</dim>
					<dim>32</dim>
					<dim>50</dim>
					<dim>85</dim>
				</port>
			</output>
		</layer>
		<layer id="226" name="ActionNet/twinnet/classification_8/bottleneck3_8/dim_inc/Conv2D" precision="FP32" type="Convolution">
			<data auto_pad="same_upper" dilations="1,1" group="1" kernel="1,1" output="128" pads_begin="0,0" pads_end="0,0" strides="1,1"/>
			<input>
				<port id="0">
					<dim>1</dim>
					<dim>32</dim>
					<dim>50</dim>
					<dim>85</dim>
				</port>
			</input>
			<output>
				<port id="3">
					<dim>1</dim>
					<dim>128</dim>
					<dim>50</dim>
					<dim>85</dim>
				</port>
			</output>
			<blobs>
				<weights offset="923608" size="16384"/>
				<biases offset="939992" size="512"/>
			</blobs>
		</layer>
		<layer id="227" name="ActionNet/twinnet/classification_8/bottleneck3_8/Add" precision="FP32" type="Eltwise">
			<data operation="sum"/>
			<input>
				<port id="0">
					<dim>1</dim>
					<dim>128</dim>
					<dim>50</dim>
					<dim>85</dim>
				</port>
				<port id="1">
					<dim>1</dim>
					<dim>128</dim>
					<dim>50</dim>
					<dim>85</dim>
				</port>
			</input>
			<output>
				<port id="2">
					<dim>1</dim>
					<dim>128</dim>
					<dim>50</dim>
					<dim>85</dim>
				</port>
			</output>
		</layer>
		<layer id="228" name="ActionNet/twinnet/classification_8/bottleneck3_8/LeakyRelu" precision="FP32" type="ReLU">
			<data negative_slope="0.10000000149011612"/>
			<input>
				<port id="0">
					<dim>1</dim>
					<dim>128</dim>
					<dim>50</dim>
					<dim>85</dim>
				</port>
			</input>
			<output>
				<port id="1">
					<dim>1</dim>
					<dim>128</dim>
					<dim>50</dim>
					<dim>85</dim>
				</port>
			</output>
		</layer>
		<layer id="229" name="ActionNet/twinnet/classification_9/bottleneck3_9/dim_red/Conv2D" precision="FP32" type="Convolution">
			<data auto_pad="same_upper" dilations="1,1" group="1" kernel="1,1" output="32" pads_begin="0,0" pads_end="0,0" strides="1,1"/>
			<input>
				<port id="0">
					<dim>1</dim>
					<dim>128</dim>
					<dim>50</dim>
					<dim>85</dim>
				</port>
			</input>
			<output>
				<port id="3">
					<dim>1</dim>
					<dim>32</dim>
					<dim>50</dim>
					<dim>85</dim>
				</port>
			</output>
			<blobs>
				<weights offset="940504" size="16384"/>
				<biases offset="956888" size="128"/>
			</blobs>
		</layer>
		<layer id="230" name="ActionNet/twinnet/classification_9/bottleneck3_9/dim_red/ActionNet/twinnet/classification/bottleneck3_9/dim_red_fn_activation" precision="FP32" type="ReLU">
			<data negative_slope="0.10000000149011612"/>
			<input>
				<port id="0">
					<dim>1</dim>
					<dim>32</dim>
					<dim>50</dim>
					<dim>85</dim>
				</port>
			</input>
			<output>
				<port id="1">
					<dim>1</dim>
					<dim>32</dim>
					<dim>50</dim>
					<dim>85</dim>
				</port>
			</output>
		</layer>
		<layer id="231" name="ActionNet/twinnet/classification_9/bottleneck3_9/inner_conv/depthwise" precision="FP32" type="Convolution">
			<data auto_pad="same_upper" dilations="1,1" group="32" kernel="3,3" output="32" pads_begin="1,1" pads_end="1,1" strides="1,1"/>
			<input>
				<port id="0">
					<dim>1</dim>
					<dim>32</dim>
					<dim>50</dim>
					<dim>85</dim>
				</port>
			</input>
			<output>
				<port id="3">
					<dim>1</dim>
					<dim>32</dim>
					<dim>50</dim>
					<dim>85</dim>
				</port>
			</output>
			<blobs>
				<weights offset="957016" size="1152"/>
				<biases offset="958168" size="128"/>
			</blobs>
		</layer>
		<layer id="232" name="ActionNet/twinnet/classification_9/bottleneck3_9/inner_conv/ActionNet/twinnet/classification/bottleneck3_9/inner_conv_fn_activation" precision="FP32" type="ReLU">
			<data negative_slope="0.10000000149011612"/>
			<input>
				<port id="0">
					<dim>1</dim>
					<dim>32</dim>
					<dim>50</dim>
					<dim>85</dim>
				</port>
			</input>
			<output>
				<port id="1">
					<dim>1</dim>
					<dim>32</dim>
					<dim>50</dim>
					<dim>85</dim>
				</port>
			</output>
		</layer>
		<layer id="233" name="ActionNet/twinnet/classification_9/bottleneck3_9/dim_inc/Conv2D" precision="FP32" type="Convolution">
			<data auto_pad="same_upper" dilations="1,1" group="1" kernel="1,1" output="128" pads_begin="0,0" pads_end="0,0" strides="1,1"/>
			<input>
				<port id="0">
					<dim>1</dim>
					<dim>32</dim>
					<dim>50</dim>
					<dim>85</dim>
				</port>
			</input>
			<output>
				<port id="3">
					<dim>1</dim>
					<dim>128</dim>
					<dim>50</dim>
					<dim>85</dim>
				</port>
			</output>
			<blobs>
				<weights offset="958296" size="16384"/>
				<biases offset="974680" size="512"/>
			</blobs>
		</layer>
		<layer id="234" name="ActionNet/twinnet/classification_9/bottleneck3_9/Add" precision="FP32" type="Eltwise">
			<data operation="sum"/>
			<input>
				<port id="0">
					<dim>1</dim>
					<dim>128</dim>
					<dim>50</dim>
					<dim>85</dim>
				</port>
				<port id="1">
					<dim>1</dim>
					<dim>128</dim>
					<dim>50</dim>
					<dim>85</dim>
				</port>
			</input>
			<output>
				<port id="2">
					<dim>1</dim>
					<dim>128</dim>
					<dim>50</dim>
					<dim>85</dim>
				</port>
			</output>
		</layer>
		<layer id="235" name="ActionNet/twinnet/classification_9/bottleneck3_9/LeakyRelu" precision="FP32" type="ReLU">
			<data negative_slope="0.10000000149011612"/>
			<input>
				<port id="0">
					<dim>1</dim>
					<dim>128</dim>
					<dim>50</dim>
					<dim>85</dim>
				</port>
			</input>
			<output>
				<port id="1">
					<dim>1</dim>
					<dim>128</dim>
					<dim>50</dim>
					<dim>85</dim>
				</port>
			</output>
		</layer>
		<layer id="236" name="ActionNet/twinnet/classification_10/bottleneck3_10/dim_red/Conv2D" precision="FP32" type="Convolution">
			<data auto_pad="same_upper" dilations="1,1" group="1" kernel="1,1" output="32" pads_begin="0,0" pads_end="0,0" strides="1,1"/>
			<input>
				<port id="0">
					<dim>1</dim>
					<dim>128</dim>
					<dim>50</dim>
					<dim>85</dim>
				</port>
			</input>
			<output>
				<port id="3">
					<dim>1</dim>
					<dim>32</dim>
					<dim>50</dim>
					<dim>85</dim>
				</port>
			</output>
			<blobs>
				<weights offset="975192" size="16384"/>
				<biases offset="991576" size="128"/>
			</blobs>
		</layer>
		<layer id="237" name="ActionNet/twinnet/classification_10/bottleneck3_10/dim_red/ActionNet/twinnet/classification/bottleneck3_10/dim_red_fn_activation" precision="FP32" type="ReLU">
			<data negative_slope="0.10000000149011612"/>
			<input>
				<port id="0">
					<dim>1</dim>
					<dim>32</dim>
					<dim>50</dim>
					<dim>85</dim>
				</port>
			</input>
			<output>
				<port id="1">
					<dim>1</dim>
					<dim>32</dim>
					<dim>50</dim>
					<dim>85</dim>
				</port>
			</output>
		</layer>
		<layer id="238" name="ActionNet/twinnet/classification_10/bottleneck3_10/inner_conv/depthwise" precision="FP32" type="Convolution">
			<data auto_pad="same_upper" dilations="1,1" group="32" kernel="3,3" output="32" pads_begin="1,1" pads_end="1,1" strides="1,1"/>
			<input>
				<port id="0">
					<dim>1</dim>
					<dim>32</dim>
					<dim>50</dim>
					<dim>85</dim>
				</port>
			</input>
			<output>
				<port id="3">
					<dim>1</dim>
					<dim>32</dim>
					<dim>50</dim>
					<dim>85</dim>
				</port>
			</output>
			<blobs>
				<weights offset="991704" size="1152"/>
				<biases offset="992856" size="128"/>
			</blobs>
		</layer>
		<layer id="239" name="ActionNet/twinnet/classification_10/bottleneck3_10/inner_conv/ActionNet/twinnet/classification/bottleneck3_10/inner_conv_fn_activation" precision="FP32" type="ReLU">
			<data negative_slope="0.10000000149011612"/>
			<input>
				<port id="0">
					<dim>1</dim>
					<dim>32</dim>
					<dim>50</dim>
					<dim>85</dim>
				</port>
			</input>
			<output>
				<port id="1">
					<dim>1</dim>
					<dim>32</dim>
					<dim>50</dim>
					<dim>85</dim>
				</port>
			</output>
		</layer>
		<layer id="240" name="ActionNet/twinnet/classification_10/bottleneck3_10/dim_inc/Conv2D" precision="FP32" type="Convolution">
			<data auto_pad="same_upper" dilations="1,1" group="1" kernel="1,1" output="128" pads_begin="0,0" pads_end="0,0" strides="1,1"/>
			<input>
				<port id="0">
					<dim>1</dim>
					<dim>32</dim>
					<dim>50</dim>
					<dim>85</dim>
				</port>
			</input>
			<output>
				<port id="3">
					<dim>1</dim>
					<dim>128</dim>
					<dim>50</dim>
					<dim>85</dim>
				</port>
			</output>
			<blobs>
				<weights offset="992984" size="16384"/>
				<biases offset="1009368" size="512"/>
			</blobs>
		</layer>
		<layer id="241" name="ActionNet/twinnet/classification_10/bottleneck3_10/Add" precision="FP32" type="Eltwise">
			<data operation="sum"/>
			<input>
				<port id="0">
					<dim>1</dim>
					<dim>128</dim>
					<dim>50</dim>
					<dim>85</dim>
				</port>
				<port id="1">
					<dim>1</dim>
					<dim>128</dim>
					<dim>50</dim>
					<dim>85</dim>
				</port>
			</input>
			<output>
				<port id="2">
					<dim>1</dim>
					<dim>128</dim>
					<dim>50</dim>
					<dim>85</dim>
				</port>
			</output>
		</layer>
		<layer id="242" name="ActionNet/twinnet/classification_10/bottleneck3_10/LeakyRelu" precision="FP32" type="ReLU">
			<data negative_slope="0.10000000149011612"/>
			<input>
				<port id="0">
					<dim>1</dim>
					<dim>128</dim>
					<dim>50</dim>
					<dim>85</dim>
				</port>
			</input>
			<output>
				<port id="1">
					<dim>1</dim>
					<dim>128</dim>
					<dim>50</dim>
					<dim>85</dim>
				</port>
			</output>
		</layer>
		<layer id="243" name="ActionNet/action_heads/head_1_shared/conv1/Conv2D" precision="FP32" type="Convolution">
			<data auto_pad="same_upper" dilations="1,1" group="1" kernel="1,1" output="128" pads_begin="0,0" pads_end="0,0" strides="1,1"/>
			<input>
				<port id="0">
					<dim>1</dim>
					<dim>128</dim>
					<dim>50</dim>
					<dim>85</dim>
				</port>
			</input>
			<output>
				<port id="3">
					<dim>1</dim>
					<dim>128</dim>
					<dim>50</dim>
					<dim>85</dim>
				</port>
			</output>
			<blobs>
				<weights offset="1009880" size="65536"/>
				<biases offset="1075416" size="512"/>
			</blobs>
		</layer>
		<layer id="244" name="ActionNet/action_heads/head_1_shared/conv1/ActionNet/action_heads/head_1_shared/conv1_fn_activation" precision="FP32" type="ReLU">
			<data negative_slope="0.10000000149011612"/>
			<input>
				<port id="0">
					<dim>1</dim>
					<dim>128</dim>
					<dim>50</dim>
					<dim>85</dim>
				</port>
			</input>
			<output>
				<port id="1">
					<dim>1</dim>
					<dim>128</dim>
					<dim>50</dim>
					<dim>85</dim>
				</port>
			</output>
		</layer>
		<layer id="245" name="ActionNet/action_heads/head_1_shared/conv2/depthwise" precision="FP32" type="Convolution">
			<data auto_pad="same_upper" dilations="1,1" group="128" kernel="3,3" output="128" pads_begin="1,1" pads_end="1,1" strides="1,1"/>
			<input>
				<port id="0">
					<dim>1</dim>
					<dim>128</dim>
					<dim>50</dim>
					<dim>85</dim>
				</port>
			</input>
			<output>
				<port id="3">
					<dim>1</dim>
					<dim>128</dim>
					<dim>50</dim>
					<dim>85</dim>
				</port>
			</output>
			<blobs>
				<weights offset="1075928" size="4608"/>
				<biases offset="1080536" size="512"/>
			</blobs>
		</layer>
		<layer id="246" name="ActionNet/action_heads/head_1_anchor_1/conv1/Conv2D" precision="FP32" type="Convolution">
			<data auto_pad="same_upper" dilations="1,1" group="1" kernel="1,1" output="128" pads_begin="0,0" pads_end="0,0" strides="1,1"/>
			<input>
				<port id="0">
					<dim>1</dim>
					<dim>128</dim>
					<dim>50</dim>
					<dim>85</dim>
				</port>
			</input>
			<output>
				<port id="3">
					<dim>1</dim>
					<dim>128</dim>
					<dim>50</dim>
					<dim>85</dim>
				</port>
			</output>
			<blobs>
				<weights offset="1081048" size="65536"/>
				<biases offset="1146584" size="512"/>
			</blobs>
		</layer>
		<layer id="247" name="ActionNet/action_heads/head_1_anchor_1/conv1/BiasAdd/Normalize" precision="FP32" type="Normalize">
			<data across_spatial="0" channel_shared="0" eps="1e-12"/>
			<input>
				<port id="0">
					<dim>1</dim>
					<dim>128</dim>
					<dim>50</dim>
					<dim>85</dim>
				</port>
			</input>
			<output>
				<port id="2">
					<dim>1</dim>
					<dim>128</dim>
					<dim>50</dim>
					<dim>85</dim>
				</port>
			</output>
			<blobs>
				<weights offset="1147096" size="512"/>
			</blobs>
		</layer>
		<layer id="248" name="ActionNet/action_heads/action_classifier/conv1/Conv2D" precision="FP32" type="Convolution">
			<data auto_pad="same_upper" dilations="1,1" group="1" kernel="1,1" output="128" pads_begin="0,0" pads_end="0,0" strides="1,1"/>
			<input>
				<port id="0">
					<dim>1</dim>
					<dim>128</dim>
					<dim>50</dim>
					<dim>85</dim>
				</port>
			</input>
			<output>
				<port id="3">
					<dim>1</dim>
					<dim>128</dim>
					<dim>50</dim>
					<dim>85</dim>
				</port>
			</output>
			<blobs>
				<weights offset="1147608" size="65536"/>
				<biases offset="1213144" size="512"/>
			</blobs>
		</layer>
		<layer id="249" name="ActionNet/action_heads/action_classifier/conv1/ActionNet/action_heads/action_classifier/conv1_fn_activation" precision="FP32" type="ReLU">
			<data negative_slope="0.10000000149011612"/>
			<input>
				<port id="0">
					<dim>1</dim>
					<dim>128</dim>
					<dim>50</dim>
					<dim>85</dim>
				</port>
			</input>
			<output>
				<port id="1">
					<dim>1</dim>
					<dim>128</dim>
					<dim>50</dim>
					<dim>85</dim>
				</port>
			</output>
		</layer>
		<layer id="250" name="ActionNet/action_heads/action_classifier/conv2/Conv2D" precision="FP32" type="Convolution">
			<data auto_pad="same_upper" dilations="1,1" group="1" kernel="1,1" output="128" pads_begin="0,0" pads_end="0,0" strides="1,1"/>
			<input>
				<port id="0">
					<dim>1</dim>
					<dim>128</dim>
					<dim>50</dim>
					<dim>85</dim>
				</port>
			</input>
			<output>
				<port id="3">
					<dim>1</dim>
					<dim>128</dim>
					<dim>50</dim>
					<dim>85</dim>
				</port>
			</output>
			<blobs>
				<weights offset="1213656" size="65536"/>
				<biases offset="1279192" size="512"/>
			</blobs>
		</layer>
		<layer id="251" name="ActionNet/action_heads/action_classifier/conv2/BiasAdd/Normalize" precision="FP32" type="Normalize">
			<data across_spatial="0" channel_shared="0" eps="1e-12"/>
			<input>
				<port id="0">
					<dim>1</dim>
					<dim>128</dim>
					<dim>50</dim>
					<dim>85</dim>
				</port>
			</input>
			<output>
				<port id="2">
					<dim>1</dim>
					<dim>128</dim>
					<dim>50</dim>
					<dim>85</dim>
				</port>
			</output>
			<blobs>
				<weights offset="1147096" size="512"/>
			</blobs>
		</layer>
		<layer id="252" name="ActionNet/action_heads/out_head_1_anchor_1" precision="FP32" type="Convolution">
			<data auto_pad="same_upper" dilations="1,1" group="1" kernel="1,1" output="6" pads_begin="0,0" pads_end="0,0" strides="1,1"/>
			<input>
				<port id="0">
					<dim>1</dim>
					<dim>128</dim>
					<dim>50</dim>
					<dim>85</dim>
				</port>
			</input>
			<output>
				<port id="2">
					<dim>1</dim>
					<dim>6</dim>
					<dim>50</dim>
					<dim>85</dim>
				</port>
			</output>
			<blobs>
				<weights offset="1279704" size="3072"/>
			</blobs>
		</layer>
		<layer id="253" name="ActionNet/twinnet/classification_11/bottleneck4_0/dim_red/Conv2D" precision="FP32" type="Convolution">
			<data auto_pad="same_upper" dilations="1,1" group="1" kernel="1,1" output="64" pads_begin="0,0" pads_end="0,0" strides="1,1"/>
			<input>
				<port id="0">
					<dim>1</dim>
					<dim>128</dim>
					<dim>50</dim>
					<dim>85</dim>
				</port>
			</input>
			<output>
				<port id="3">
					<dim>1</dim>
					<dim>64</dim>
					<dim>50</dim>
					<dim>85</dim>
				</port>
			</output>
			<blobs>
				<weights offset="1282776" size="32768"/>
				<biases offset="1315544" size="256"/>
			</blobs>
		</layer>
		<layer id="254" name="ActionNet/twinnet/classification_11/bottleneck4_0/dim_red/ActionNet/twinnet/classification/bottleneck4_0/dim_red_fn_activation" precision="FP32" type="ReLU">
			<data negative_slope="0.10000000149011612"/>
			<input>
				<port id="0">
					<dim>1</dim>
					<dim>64</dim>
					<dim>50</dim>
					<dim>85</dim>
				</port>
			</input>
			<output>
				<port id="1">
					<dim>1</dim>
					<dim>64</dim>
					<dim>50</dim>
					<dim>85</dim>
				</port>
			</output>
		</layer>
		<layer id="255" name="ActionNet/twinnet/classification_11/bottleneck4_0/inner_conv/depthwise" precision="FP32" type="Convolution">
			<data auto_pad="same_upper" dilations="1,1" group="64" kernel="3,3" output="64" pads_begin="0,1" pads_end="1,1" strides="2,2"/>
			<input>
				<port id="0">
					<dim>1</dim>
					<dim>64</dim>
					<dim>50</dim>
					<dim>85</dim>
				</port>
			</input>
			<output>
				<port id="3">
					<dim>1</dim>
					<dim>64</dim>
					<dim>25</dim>
					<dim>43</dim>
				</port>
			</output>
			<blobs>
				<weights offset="1315800" size="2304"/>
				<biases offset="1318104" size="256"/>
			</blobs>
		</layer>
		<layer id="256" name="ActionNet/twinnet/classification_11/bottleneck4_0/inner_conv/ActionNet/twinnet/classification/bottleneck4_0/inner_conv_fn_activation" precision="FP32" type="ReLU">
			<data negative_slope="0.10000000149011612"/>
			<input>
				<port id="0">
					<dim>1</dim>
					<dim>64</dim>
					<dim>25</dim>
					<dim>43</dim>
				</port>
			</input>
			<output>
				<port id="1">
					<dim>1</dim>
					<dim>64</dim>
					<dim>25</dim>
					<dim>43</dim>
				</port>
			</output>
		</layer>
		<layer id="257" name="ActionNet/twinnet/classification_11/bottleneck4_0/dim_inc/Conv2D" precision="FP32" type="Convolution">
			<data auto_pad="same_upper" dilations="1,1" group="1" kernel="1,1" output="256" pads_begin="0,0" pads_end="0,0" strides="1,1"/>
			<input>
				<port id="0">
					<dim>1</dim>
					<dim>64</dim>
					<dim>25</dim>
					<dim>43</dim>
				</port>
			</input>
			<output>
				<port id="3">
					<dim>1</dim>
					<dim>256</dim>
					<dim>25</dim>
					<dim>43</dim>
				</port>
			</output>
			<blobs>
				<weights offset="1318360" size="65536"/>
				<biases offset="1383896" size="1024"/>
			</blobs>
		</layer>
		<layer id="258" name="ActionNet/twinnet/classification_11/bottleneck4_0/max_pool/MaxPool" precision="FP32" type="Pooling">
			<data auto_pad="same_upper" exclude-pad="true" kernel="2,2" pads_begin="0,0" pads_end="0,1" pool-method="max" strides="2,2"/>
			<input>
				<port id="0">
					<dim>1</dim>
					<dim>128</dim>
					<dim>50</dim>
					<dim>85</dim>
				</port>
			</input>
			<output>
				<port id="1">
					<dim>1</dim>
					<dim>128</dim>
					<dim>25</dim>
					<dim>43</dim>
				</port>
			</output>
		</layer>
		<layer id="259" name="ActionNet/twinnet/classification_11/bottleneck4_0/skip_conv/Conv2D" precision="FP32" type="Convolution">
			<data auto_pad="same_upper" dilations="1,1" group="1" kernel="1,1" output="256" pads_begin="0,0" pads_end="0,0" strides="1,1"/>
			<input>
				<port id="0">
					<dim>1</dim>
					<dim>128</dim>
					<dim>25</dim>
					<dim>43</dim>
				</port>
			</input>
			<output>
				<port id="3">
					<dim>1</dim>
					<dim>256</dim>
					<dim>25</dim>
					<dim>43</dim>
				</port>
			</output>
			<blobs>
				<weights offset="1384920" size="131072"/>
				<biases offset="1515992" size="1024"/>
			</blobs>
		</layer>
		<layer id="260" name="ActionNet/twinnet/classification_11/bottleneck4_0/Add" precision="FP32" type="Eltwise">
			<data operation="sum"/>
			<input>
				<port id="0">
					<dim>1</dim>
					<dim>256</dim>
					<dim>25</dim>
					<dim>43</dim>
				</port>
				<port id="1">
					<dim>1</dim>
					<dim>256</dim>
					<dim>25</dim>
					<dim>43</dim>
				</port>
			</input>
			<output>
				<port id="2">
					<dim>1</dim>
					<dim>256</dim>
					<dim>25</dim>
					<dim>43</dim>
				</port>
			</output>
		</layer>
		<layer id="261" name="ActionNet/twinnet/classification_11/bottleneck4_0/LeakyRelu" precision="FP32" type="ReLU">
			<data negative_slope="0.10000000149011612"/>
			<input>
				<port id="0">
					<dim>1</dim>
					<dim>256</dim>
					<dim>25</dim>
					<dim>43</dim>
				</port>
			</input>
			<output>
				<port id="1">
					<dim>1</dim>
					<dim>256</dim>
					<dim>25</dim>
					<dim>43</dim>
				</port>
			</output>
		</layer>
		<layer id="262" name="ActionNet/twinnet/classification_12/bottleneck4_1/dim_red/Conv2D" precision="FP32" type="Convolution">
			<data auto_pad="same_upper" dilations="1,1" group="1" kernel="1,1" output="64" pads_begin="0,0" pads_end="0,0" strides="1,1"/>
			<input>
				<port id="0">
					<dim>1</dim>
					<dim>256</dim>
					<dim>25</dim>
					<dim>43</dim>
				</port>
			</input>
			<output>
				<port id="3">
					<dim>1</dim>
					<dim>64</dim>
					<dim>25</dim>
					<dim>43</dim>
				</port>
			</output>
			<blobs>
				<weights offset="1517016" size="65536"/>
				<biases offset="1582552" size="256"/>
			</blobs>
		</layer>
		<layer id="263" name="ActionNet/twinnet/classification_12/bottleneck4_1/dim_red/ActionNet/twinnet/classification/bottleneck4_1/dim_red_fn_activation" precision="FP32" type="ReLU">
			<data negative_slope="0.10000000149011612"/>
			<input>
				<port id="0">
					<dim>1</dim>
					<dim>64</dim>
					<dim>25</dim>
					<dim>43</dim>
				</port>
			</input>
			<output>
				<port id="1">
					<dim>1</dim>
					<dim>64</dim>
					<dim>25</dim>
					<dim>43</dim>
				</port>
			</output>
		</layer>
		<layer id="264" name="ActionNet/twinnet/classification_12/bottleneck4_1/inner_conv/depthwise" precision="FP32" type="Convolution">
			<data auto_pad="same_upper" dilations="1,1" group="64" kernel="3,3" output="64" pads_begin="1,1" pads_end="1,1" strides="1,1"/>
			<input>
				<port id="0">
					<dim>1</dim>
					<dim>64</dim>
					<dim>25</dim>
					<dim>43</dim>
				</port>
			</input>
			<output>
				<port id="3">
					<dim>1</dim>
					<dim>64</dim>
					<dim>25</dim>
					<dim>43</dim>
				</port>
			</output>
			<blobs>
				<weights offset="1582808" size="2304"/>
				<biases offset="1585112" size="256"/>
			</blobs>
		</layer>
		<layer id="265" name="ActionNet/twinnet/classification_12/bottleneck4_1/inner_conv/ActionNet/twinnet/classification/bottleneck4_1/inner_conv_fn_activation" precision="FP32" type="ReLU">
			<data negative_slope="0.10000000149011612"/>
			<input>
				<port id="0">
					<dim>1</dim>
					<dim>64</dim>
					<dim>25</dim>
					<dim>43</dim>
				</port>
			</input>
			<output>
				<port id="1">
					<dim>1</dim>
					<dim>64</dim>
					<dim>25</dim>
					<dim>43</dim>
				</port>
			</output>
		</layer>
		<layer id="266" name="ActionNet/twinnet/classification_12/bottleneck4_1/dim_inc/Conv2D" precision="FP32" type="Convolution">
			<data auto_pad="same_upper" dilations="1,1" group="1" kernel="1,1" output="256" pads_begin="0,0" pads_end="0,0" strides="1,1"/>
			<input>
				<port id="0">
					<dim>1</dim>
					<dim>64</dim>
					<dim>25</dim>
					<dim>43</dim>
				</port>
			</input>
			<output>
				<port id="3">
					<dim>1</dim>
					<dim>256</dim>
					<dim>25</dim>
					<dim>43</dim>
				</port>
			</output>
			<blobs>
				<weights offset="1585368" size="65536"/>
				<biases offset="1650904" size="1024"/>
			</blobs>
		</layer>
		<layer id="267" name="ActionNet/twinnet/classification_12/bottleneck4_1/Add" precision="FP32" type="Eltwise">
			<data operation="sum"/>
			<input>
				<port id="0">
					<dim>1</dim>
					<dim>256</dim>
					<dim>25</dim>
					<dim>43</dim>
				</port>
				<port id="1">
					<dim>1</dim>
					<dim>256</dim>
					<dim>25</dim>
					<dim>43</dim>
				</port>
			</input>
			<output>
				<port id="2">
					<dim>1</dim>
					<dim>256</dim>
					<dim>25</dim>
					<dim>43</dim>
				</port>
			</output>
		</layer>
		<layer id="268" name="ActionNet/twinnet/classification_12/bottleneck4_1/LeakyRelu" precision="FP32" type="ReLU">
			<data negative_slope="0.10000000149011612"/>
			<input>
				<port id="0">
					<dim>1</dim>
					<dim>256</dim>
					<dim>25</dim>
					<dim>43</dim>
				</port>
			</input>
			<output>
				<port id="1">
					<dim>1</dim>
					<dim>256</dim>
					<dim>25</dim>
					<dim>43</dim>
				</port>
			</output>
		</layer>
		<layer id="269" name="ActionNet/twinnet/classification_13/bottleneck4_2/dim_red/Conv2D" precision="FP32" type="Convolution">
			<data auto_pad="same_upper" dilations="1,1" group="1" kernel="1,1" output="64" pads_begin="0,0" pads_end="0,0" strides="1,1"/>
			<input>
				<port id="0">
					<dim>1</dim>
					<dim>256</dim>
					<dim>25</dim>
					<dim>43</dim>
				</port>
			</input>
			<output>
				<port id="3">
					<dim>1</dim>
					<dim>64</dim>
					<dim>25</dim>
					<dim>43</dim>
				</port>
			</output>
			<blobs>
				<weights offset="1651928" size="65536"/>
				<biases offset="1717464" size="256"/>
			</blobs>
		</layer>
		<layer id="270" name="ActionNet/twinnet/classification_13/bottleneck4_2/dim_red/ActionNet/twinnet/classification/bottleneck4_2/dim_red_fn_activation" precision="FP32" type="ReLU">
			<data negative_slope="0.10000000149011612"/>
			<input>
				<port id="0">
					<dim>1</dim>
					<dim>64</dim>
					<dim>25</dim>
					<dim>43</dim>
				</port>
			</input>
			<output>
				<port id="1">
					<dim>1</dim>
					<dim>64</dim>
					<dim>25</dim>
					<dim>43</dim>
				</port>
			</output>
		</layer>
		<layer id="271" name="ActionNet/twinnet/classification_13/bottleneck4_2/inner_conv/depthwise" precision="FP32" type="Convolution">
			<data auto_pad="same_upper" dilations="1,1" group="64" kernel="3,3" output="64" pads_begin="1,1" pads_end="1,1" strides="1,1"/>
			<input>
				<port id="0">
					<dim>1</dim>
					<dim>64</dim>
					<dim>25</dim>
					<dim>43</dim>
				</port>
			</input>
			<output>
				<port id="3">
					<dim>1</dim>
					<dim>64</dim>
					<dim>25</dim>
					<dim>43</dim>
				</port>
			</output>
			<blobs>
				<weights offset="1717720" size="2304"/>
				<biases offset="1720024" size="256"/>
			</blobs>
		</layer>
		<layer id="272" name="ActionNet/twinnet/classification_13/bottleneck4_2/inner_conv/ActionNet/twinnet/classification/bottleneck4_2/inner_conv_fn_activation" precision="FP32" type="ReLU">
			<data negative_slope="0.10000000149011612"/>
			<input>
				<port id="0">
					<dim>1</dim>
					<dim>64</dim>
					<dim>25</dim>
					<dim>43</dim>
				</port>
			</input>
			<output>
				<port id="1">
					<dim>1</dim>
					<dim>64</dim>
					<dim>25</dim>
					<dim>43</dim>
				</port>
			</output>
		</layer>
		<layer id="273" name="ActionNet/twinnet/classification_13/bottleneck4_2/dim_inc/Conv2D" precision="FP32" type="Convolution">
			<data auto_pad="same_upper" dilations="1,1" group="1" kernel="1,1" output="256" pads_begin="0,0" pads_end="0,0" strides="1,1"/>
			<input>
				<port id="0">
					<dim>1</dim>
					<dim>64</dim>
					<dim>25</dim>
					<dim>43</dim>
				</port>
			</input>
			<output>
				<port id="3">
					<dim>1</dim>
					<dim>256</dim>
					<dim>25</dim>
					<dim>43</dim>
				</port>
			</output>
			<blobs>
				<weights offset="1720280" size="65536"/>
				<biases offset="1785816" size="1024"/>
			</blobs>
		</layer>
		<layer id="274" name="ActionNet/twinnet/classification_13/bottleneck4_2/Add" precision="FP32" type="Eltwise">
			<data operation="sum"/>
			<input>
				<port id="0">
					<dim>1</dim>
					<dim>256</dim>
					<dim>25</dim>
					<dim>43</dim>
				</port>
				<port id="1">
					<dim>1</dim>
					<dim>256</dim>
					<dim>25</dim>
					<dim>43</dim>
				</port>
			</input>
…
				<port id="2">
					<dim>1</dim>
					<dim>8550</dim>
					<dim>2</dim>
				</port>
			</output>
		</layer>
		<layer id="507" name="ActionNet/out_detection_conf" precision="FP32" type="SoftMax">
			<data axis="2"/>
			<input>
				<port id="0">
					<dim>1</dim>
					<dim>8550</dim>
					<dim>2</dim>
				</port>
			</input>
			<output>
				<port id="1">
					<dim>1</dim>
					<dim>8550</dim>
					<dim>2</dim>
				</port>
			</output>
		</layer>
		<layer id="508" name="ActionNet/detection_heads/head_1/loc_conv1/Conv2D" precision="FP32" type="Convolution">
			<data auto_pad="same_upper" dilations="1,1" group="1" kernel="1,1" output="128" pads_begin="0,0" pads_end="0,0" strides="1,1"/>
			<input>
				<port id="0">
					<dim>1</dim>
					<dim>128</dim>
					<dim>50</dim>
					<dim>85</dim>
				</port>
			</input>
			<output>
				<port id="3">
					<dim>1</dim>
					<dim>128</dim>
					<dim>50</dim>
					<dim>85</dim>
				</port>
			</output>
			<blobs>
				<weights offset="7095692" size="65536"/>
				<biases offset="7161228" size="512"/>
			</blobs>
		</layer>
		<layer id="509" name="ActionNet/detection_heads/head_1/loc_conv1/ActionNet/detection_heads/head_1/loc_conv1_fn_activation" precision="FP32" type="ReLU">
			<data negative_slope="0.10000000149011612"/>
			<input>
				<port id="0">
					<dim>1</dim>
					<dim>128</dim>
					<dim>50</dim>
					<dim>85</dim>
				</port>
			</input>
			<output>
				<port id="1">
					<dim>1</dim>
					<dim>128</dim>
					<dim>50</dim>
					<dim>85</dim>
				</port>
			</output>
		</layer>
		<layer id="510" name="ActionNet/detection_heads/head_1/loc_conv2/depthwise" precision="FP32" type="Convolution">
			<data auto_pad="same_upper" dilations="1,1" group="128" kernel="3,3" output="128" pads_begin="1,1" pads_end="1,1" strides="1,1"/>
			<input>
				<port id="0">
					<dim>1</dim>
					<dim>128</dim>
					<dim>50</dim>
					<dim>85</dim>
				</port>
			</input>
			<output>
				<port id="3">
					<dim>1</dim>
					<dim>128</dim>
					<dim>50</dim>
					<dim>85</dim>
				</port>
			</output>
			<blobs>
				<weights offset="7161740" size="4608"/>
				<biases offset="7166348" size="512"/>
			</blobs>
		</layer>
		<layer id="511" name="ActionNet/detection_heads/head_1/loc/Conv2D" precision="FP32" type="Convolution">
			<data auto_pad="same_upper" dilations="1,1" group="1" kernel="1,1" output="4" pads_begin="0,0" pads_end="0,0" strides="1,1"/>
			<input>
				<port id="0">
					<dim>1</dim>
					<dim>128</dim>
					<dim>50</dim>
					<dim>85</dim>
				</port>
			</input>
			<output>
				<port id="3">
					<dim>1</dim>
					<dim>4</dim>
					<dim>50</dim>
					<dim>85</dim>
				</port>
			</output>
			<blobs>
				<weights offset="7166860" size="2048"/>
				<biases offset="7168908" size="16"/>
			</blobs>
		</layer>
		<layer id="512" name="ActionNet/detection_heads/head_1/loc/Conv2D/Transpose" precision="FP32" type="Permute">
			<data order="0,2,3,1"/>
			<input>
				<port id="0">
					<dim>1</dim>
					<dim>4</dim>
					<dim>50</dim>
					<dim>85</dim>
				</port>
			</input>
			<output>
				<port id="1">
					<dim>1</dim>
					<dim>50</dim>
					<dim>85</dim>
					<dim>4</dim>
				</port>
			</output>
		</layer>
		<layer id="513" name="ActionNet/detection_heads/Reshape/shape/Concat_/Output_0/Data__const" precision="I32" type="Const">
			<output>
				<port id="1">
					<dim>3</dim>
				</port>
			</output>
			<blobs>
				<custom offset="7168924" size="12"/>
			</blobs>
		</layer>
		<layer id="514" name="ActionNet/detection_heads/Reshape" precision="FP32" type="Reshape">
			<input>
				<port id="0">
					<dim>1</dim>
					<dim>50</dim>
					<dim>85</dim>
					<dim>4</dim>
				</port>
				<port id="1">
					<dim>3</dim>
				</port>
			</input>
			<output>
				<port id="2">
					<dim>1</dim>
					<dim>4250</dim>
					<dim>4</dim>
				</port>
			</output>
		</layer>
		<layer id="515" name="ActionNet/detection_heads/head_2/loc_conv1/Conv2D" precision="FP32" type="Convolution">
			<data auto_pad="same_upper" dilations="1,1" group="1" kernel="1,1" output="256" pads_begin="0,0" pads_end="0,0" strides="1,1"/>
			<input>
				<port id="0">
					<dim>1</dim>
					<dim>256</dim>
					<dim>25</dim>
					<dim>43</dim>
				</port>
			</input>
			<output>
				<port id="3">
					<dim>1</dim>
					<dim>256</dim>
					<dim>25</dim>
					<dim>43</dim>
				</port>
			</output>
			<blobs>
				<weights offset="7168936" size="262144"/>
				<biases offset="7431080" size="1024"/>
			</blobs>
		</layer>
		<layer id="516" name="ActionNet/detection_heads/head_2/loc_conv1/ActionNet/detection_heads/head_2/loc_conv1_fn_activation" precision="FP32" type="ReLU">
			<data negative_slope="0.10000000149011612"/>
			<input>
				<port id="0">
					<dim>1</dim>
					<dim>256</dim>
					<dim>25</dim>
					<dim>43</dim>
				</port>
			</input>
			<output>
				<port id="1">
					<dim>1</dim>
					<dim>256</dim>
					<dim>25</dim>
					<dim>43</dim>
				</port>
			</output>
		</layer>
		<layer id="517" name="ActionNet/detection_heads/head_2/loc_conv2/depthwise" precision="FP32" type="Convolution">
			<data auto_pad="same_upper" dilations="1,1" group="256" kernel="3,3" output="256" pads_begin="1,1" pads_end="1,1" strides="1,1"/>
			<input>
				<port id="0">
					<dim>1</dim>
					<dim>256</dim>
					<dim>25</dim>
					<dim>43</dim>
				</port>
			</input>
			<output>
				<port id="3">
					<dim>1</dim>
					<dim>256</dim>
					<dim>25</dim>
					<dim>43</dim>
				</port>
			</output>
			<blobs>
				<weights offset="7432104" size="9216"/>
				<biases offset="7441320" size="1024"/>
			</blobs>
		</layer>
		<layer id="518" name="ActionNet/detection_heads/head_2/loc/Conv2D" precision="FP32" type="Convolution">
			<data auto_pad="same_upper" dilations="1,1" group="1" kernel="1,1" output="16" pads_begin="0,0" pads_end="0,0" strides="1,1"/>
			<input>
				<port id="0">
					<dim>1</dim>
					<dim>256</dim>
					<dim>25</dim>
					<dim>43</dim>
				</port>
			</input>
			<output>
				<port id="3">
					<dim>1</dim>
					<dim>16</dim>
					<dim>25</dim>
					<dim>43</dim>
				</port>
			</output>
			<blobs>
				<weights offset="7442344" size="16384"/>
				<biases offset="7458728" size="64"/>
			</blobs>
		</layer>
		<layer id="519" name="ActionNet/detection_heads/head_2/loc/Conv2D/Transpose" precision="FP32" type="Permute">
			<data order="0,2,3,1"/>
			<input>
				<port id="0">
					<dim>1</dim>
					<dim>16</dim>
					<dim>25</dim>
					<dim>43</dim>
				</port>
			</input>
			<output>
				<port id="1">
					<dim>1</dim>
					<dim>25</dim>
					<dim>43</dim>
					<dim>16</dim>
				</port>
			</output>
		</layer>
		<layer id="520" name="ActionNet/detection_heads/Reshape_2/shape/Concat_/Output_0/Data__const" precision="I32" type="Const">
			<output>
				<port id="1">
					<dim>3</dim>
				</port>
			</output>
			<blobs>
				<custom offset="7168924" size="12"/>
			</blobs>
		</layer>
		<layer id="521" name="ActionNet/detection_heads/Reshape_2" precision="FP32" type="Reshape">
			<input>
				<port id="0">
					<dim>1</dim>
					<dim>25</dim>
					<dim>43</dim>
					<dim>16</dim>
				</port>
				<port id="1">
					<dim>3</dim>
				</port>
			</input>
			<output>
				<port id="2">
					<dim>1</dim>
					<dim>4300</dim>
					<dim>4</dim>
				</port>
			</output>
		</layer>
		<layer id="522" name="ActionNet/out_detection_loc" precision="FP32" type="Concat">
			<data axis="1"/>
			<input>
				<port id="0">
					<dim>1</dim>
					<dim>4250</dim>
					<dim>4</dim>
				</port>
				<port id="1">
					<dim>1</dim>
					<dim>4300</dim>
					<dim>4</dim>
				</port>
			</input>
			<output>
				<port id="2">
					<dim>1</dim>
					<dim>8550</dim>
					<dim>4</dim>
				</port>
			</output>
		</layer>
	</layers>
	<edges>
		<edge from-layer="0" from-port="0" to-layer="1" to-port="0"/>
		<edge from-layer="1" from-port="3" to-layer="2" to-port="0"/>
		<edge from-layer="2" from-port="3" to-layer="3" to-port="0"/>
		<edge from-layer="3" from-port="1" to-layer="4" to-port="0"/>
		<edge from-layer="4" from-port="3" to-layer="5" to-port="0"/>
		<edge from-layer="5" from-port="1" to-layer="6" to-port="0"/>
		<edge from-layer="6" from-port="3" to-layer="7" to-port="0"/>
		<edge from-layer="7" from-port="1" to-layer="8" to-port="0"/>
		<edge from-layer="8" from-port="3" to-layer="9" to-port="0"/>
		<edge from-layer="3" from-port="1" to-layer="9" to-port="1"/>
		<edge from-layer="9" from-port="2" to-layer="10" to-port="0"/>
		<edge from-layer="10" from-port="1" to-layer="11" to-port="0"/>
		<edge from-layer="11" from-port="3" to-layer="12" to-port="0"/>
		<edge from-layer="12" from-port="1" to-layer="13" to-port="0"/>
		<edge from-layer="13" from-port="3" to-layer="14" to-port="0"/>
		<edge from-layer="14" from-port="1" to-layer="15" to-port="0"/>
		<edge from-layer="15" from-port="3" to-layer="16" to-port="0"/>
		<edge from-layer="10" from-port="1" to-layer="16" to-port="1"/>
		<edge from-layer="16" from-port="2" to-layer="17" to-port="0"/>
		<edge from-layer="17" from-port="1" to-layer="18" to-port="0"/>
		<edge from-layer="18" from-port="3" to-layer="19" to-port="0"/>
		<edge from-layer="19" from-port="1" to-layer="20" to-port="0"/>
		<edge from-layer="20" from-port="3" to-layer="21" to-port="0"/>
		<edge from-layer="21" from-port="1" to-layer="22" to-port="0"/>
		<edge from-layer="22" from-port="3" to-layer="23" to-port="0"/>
		<edge from-layer="17" from-port="1" to-layer="23" to-port="1"/>
		<edge from-layer="23" from-port="2" to-layer="24" to-port="0"/>
		<edge from-layer="24" from-port="1" to-layer="25" to-port="0"/>
		<edge from-layer="25" from-port="3" to-layer="26" to-port="0"/>
		<edge from-layer="26" from-port="1" to-layer="27" to-port="0"/>
		<edge from-layer="27" from-port="3" to-layer="28" to-port="0"/>
		<edge from-layer="28" from-port="1" to-layer="29" to-port="0"/>
		<edge from-layer="29" from-port="3" to-layer="30" to-port="0"/>
		<edge from-layer="24" from-port="1" to-layer="30" to-port="1"/>
		<edge from-layer="30" from-port="2" to-layer="31" to-port="0"/>
		<edge from-layer="31" from-port="1" to-layer="32" to-port="0"/>
		<edge from-layer="32" from-port="3" to-layer="33" to-port="0"/>
		<edge from-layer="33" from-port="1" to-layer="34" to-port="0"/>
		<edge from-layer="34" from-port="3" to-layer="35" to-port="0"/>
		<edge from-layer="35" from-port="1" to-layer="36" to-port="0"/>
		<edge from-layer="31" from-port="1" to-layer="37" to-port="0"/>
		<edge from-layer="37" from-port="1" to-layer="38" to-port="0"/>
		<edge from-layer="36" from-port="3" to-layer="39" to-port="0"/>
		<edge from-layer="38" from-port="3" to-layer="39" to-port="1"/>
		<edge from-layer="39" from-port="2" to-layer="40" to-port="0"/>
		<edge from-layer="40" from-port="1" to-layer="41" to-port="0"/>
		<edge from-layer="41" from-port="3" to-layer="42" to-port="0"/>
		<edge from-layer="42" from-port="1" to-layer="43" to-port="0"/>
		<edge from-layer="43" from-port="3" to-layer="44" to-port="0"/>
		<edge from-layer="44" from-port="1" to-layer="45" to-port="0"/>
		<edge from-layer="45" from-port="3" to-layer="46" to-port="0"/>
		<edge from-layer="40" from-port="1" to-layer="46" to-port="1"/>
		<edge from-layer="46" from-port="2" to-layer="47" to-port="0"/>
		<edge from-layer="47" from-port="1" to-layer="48" to-port="0"/>
		<edge from-layer="48" from-port="3" to-layer="49" to-port="0"/>
		<edge from-layer="49" from-port="1" to-layer="50" to-port="0"/>
		<edge from-layer="50" from-port="3" to-layer="51" to-port="0"/>
		<edge from-layer="51" from-port="1" to-layer="52" to-port="0"/>
		<edge from-layer="52" from-port="3" to-layer="53" to-port="0"/>
		<edge from-layer="47" from-port="1" to-layer="53" to-port="1"/>
		<edge from-layer="53" from-port="2" to-layer="54" to-port="0"/>
		<edge from-layer="54" from-port="1" to-layer="55" to-port="0"/>
		<edge from-layer="55" from-port="3" to-layer="56" to-port="0"/>
		<edge from-layer="56" from-port="1" to-layer="57" to-port="0"/>
		<edge from-layer="57" from-port="3" to-layer="58" to-port="0"/>
		<edge from-layer="58" from-port="1" to-layer="59" to-port="0"/>
		<edge from-layer="59" from-port="3" to-layer="60" to-port="0"/>
		<edge from-layer="54" from-port="1" to-layer="60" to-port="1"/>
		<edge from-layer="60" from-port="2" to-layer="61" to-port="0"/>
		<edge from-layer="61" from-port="1" to-layer="62" to-port="0"/>
		<edge from-layer="62" from-port="3" to-layer="63" to-port="0"/>
		<edge from-layer="63" from-port="1" to-layer="64" to-port="0"/>
		<edge from-layer="64" from-port="3" to-layer="65" to-port="0"/>
		<edge from-layer="65" from-port="1" to-layer="66" to-port="0"/>
		<edge from-layer="66" from-port="3" to-layer="67" to-port="0"/>
		<edge from-layer="61" from-port="1" to-layer="67" to-port="1"/>
		<edge from-layer="67" from-port="2" to-layer="68" to-port="0"/>
		<edge from-layer="68" from-port="1" to-layer="69" to-port="0"/>
		<edge from-layer="69" from-port="3" to-layer="70" to-port="0"/>
		<edge from-layer="70" from-port="1" to-layer="71" to-port="0"/>
		<edge from-layer="71" from-port="3" to-layer="72" to-port="0"/>
		<edge from-layer="72" from-port="1" to-layer="73" to-port="0"/>
		<edge from-layer="73" from-port="3" to-layer="74" to-port="0"/>
		<edge from-layer="68" from-port="1" to-layer="74" to-port="1"/>
		<edge from-layer="74" from-port="2" to-layer="75" to-port="0"/>
		<edge from-layer="75" from-port="1" to-layer="76" to-port="0"/>
		<edge from-layer="76" from-port="3" to-layer="77" to-port="0"/>
		<edge from-layer="77" from-port="1" to-layer="78" to-port="0"/>
		<edge from-layer="78" from-port="3" to-layer="79" to-port="0"/>
		<edge from-layer="79" from-port="1" to-layer="80" to-port="0"/>
		<edge from-layer="80" from-port="3" to-layer="81" to-port="0"/>
		<edge from-layer="75" from-port="1" to-layer="81" to-port="1"/>
		<edge from-layer="81" from-port="2" to-layer="82" to-port="0"/>
		<edge from-layer="82" from-port="1" to-layer="83" to-port="0"/>
		<edge from-layer="83" from-port="3" to-layer="84" to-port="0"/>
		<edge from-layer="84" from-port="1" to-layer="85" to-port="0"/>
		<edge from-layer="85" from-port="3" to-layer="86" to-port="0"/>
		<edge from-layer="86" from-port="1" to-layer="87" to-port="0"/>
		<edge from-layer="87" from-port="3" to-layer="88" to-port="0"/>
		<edge from-layer="82" from-port="1" to-layer="88" to-port="1"/>
		<edge from-layer="88" from-port="2" to-layer="89" to-port="0"/>
		<edge from-layer="89" from-port="1" to-layer="90" to-port="0"/>
		<edge from-layer="90" from-port="3" to-layer="91" to-port="0"/>
		<edge from-layer="91" from-port="1" to-layer="92" to-port="0"/>
		<edge from-layer="92" from-port="3" to-layer="93" to-port="0"/>
		<edge from-layer="93" from-port="1" to-layer="94" to-port="0"/>
		<edge from-layer="94" from-port="3" to-layer="95" to-port="0"/>
		<edge from-layer="89" from-port="1" to-layer="95" to-port="1"/>
		<edge from-layer="95" from-port="2" to-layer="96" to-port="0"/>
		<edge from-layer="96" from-port="1" to-layer="97" to-port="0"/>
		<edge from-layer="97" from-port="3" to-layer="98" to-port="0"/>
		<edge from-layer="98" from-port="1" to-layer="99" to-port="0"/>
		<edge from-layer="99" from-port="3" to-layer="100" to-port="0"/>
		<edge from-layer="100" from-port="1" to-layer="101" to-port="0"/>
		<edge from-layer="96" from-port="1" to-layer="102" to-port="0"/>
		<edge from-layer="102" from-port="1" to-layer="103" to-port="0"/>
		<edge from-layer="101" from-port="3" to-layer="104" to-port="0"/>
		<edge from-layer="103" from-port="3" to-layer="104" to-port="1"/>
		<edge from-layer="104" from-port="2" to-layer="105" to-port="0"/>
		<edge from-layer="105" from-port="1" to-layer="106" to-port="0"/>
		<edge from-layer="106" from-port="3" to-layer="107" to-port="0"/>
		<edge from-layer="107" from-port="1" to-layer="108" to-port="0"/>
		<edge from-layer="108" from-port="3" to-layer="109" to-port="0"/>
		<edge from-layer="109" from-port="1" to-layer="110" to-port="0"/>
		<edge from-layer="110" from-port="3" to-layer="111" to-port="0"/>
		<edge from-layer="105" from-port="1" to-layer="111" to-port="1"/>
		<edge from-layer="111" from-port="2" to-layer="112" to-port="0"/>
		<edge from-layer="112" from-port="1" to-layer="113" to-port="0"/>
		<edge from-layer="113" from-port="3" to-layer="114" to-port="0"/>
		<edge from-layer="114" from-port="1" to-layer="115" to-port="0"/>
		<edge from-layer="115" from-port="3" to-layer="116" to-port="0"/>
		<edge from-layer="116" from-port="1" to-layer="117" to-port="0"/>
		<edge from-layer="117" from-port="3" to-layer="118" to-port="0"/>
		<edge from-layer="112" from-port="1" to-layer="118" to-port="1"/>
		<edge from-layer="118" from-port="2" to-layer="119" to-port="0"/>
		<edge from-layer="119" from-port="1" to-layer="120" to-port="0"/>
		<edge from-layer="120" from-port="3" to-layer="121" to-port="0"/>
		<edge from-layer="121" from-port="1" to-layer="122" to-port="0"/>
		<edge from-layer="122" from-port="3" to-layer="123" to-port="0"/>
		<edge from-layer="123" from-port="1" to-layer="124" to-port="0"/>
		<edge from-layer="124" from-port="3" to-layer="125" to-port="0"/>
		<edge from-layer="119" from-port="1" to-layer="125" to-port="1"/>
		<edge from-layer="125" from-port="2" to-layer="126" to-port="0"/>
		<edge from-layer="126" from-port="1" to-layer="127" to-port="0"/>
		<edge from-layer="96" from-port="1" to-layer="128" to-port="0"/>
		<edge from-layer="128" from-port="3" to-layer="129" to-port="0"/>
		<edge from-layer="129" from-port="1" to-layer="130" to-port="0"/>
		<edge from-layer="130" from-port="3" to-layer="131" to-port="0"/>
		<edge from-layer="131" from-port="1" to-layer="132" to-port="0"/>
		<edge from-layer="96" from-port="1" to-layer="133" to-port="0"/>
		<edge from-layer="133" from-port="1" to-layer="134" to-port="0"/>
		<edge from-layer="132" from-port="3" to-layer="135" to-port="0"/>
		<edge from-layer="134" from-port="3" to-layer="135" to-port="1"/>
		<edge from-layer="135" from-port="2" to-layer="136" to-port="0"/>
		<edge from-layer="136" from-port="1" to-layer="137" to-port="0"/>
		<edge from-layer="137" from-port="3" to-layer="138" to-port="0"/>
		<edge from-layer="138" from-port="1" to-layer="139" to-port="0"/>
		<edge from-layer="139" from-port="3" to-layer="140" to-port="0"/>
		<edge from-layer="140" from-port="1" to-layer="141" to-port="0"/>
		<edge from-layer="141" from-port="3" to-layer="142" to-port="0"/>
		<edge from-layer="136" from-port="1" to-layer="142" to-port="1"/>
		<edge from-layer="142" from-port="2" to-layer="143" to-port="0"/>
		<edge from-layer="143" from-port="1" to-layer="144" to-port="0"/>
		<edge from-layer="144" from-port="3" to-layer="145" to-port="0"/>
		<edge from-layer="145" from-port="1" to-layer="146" to-port="0"/>
		<edge from-layer="146" from-port="3" to-layer="147" to-port="0"/>
		<edge from-layer="147" from-port="1" to-layer="148" to-port="0"/>
		<edge from-layer="148" from-port="3" to-layer="149" to-port="0"/>
		<edge from-layer="143" from-port="1" to-layer="149" to-port="1"/>
		<edge from-layer="149" from-port="2" to-layer="150" to-port="0"/>
		<edge from-layer="150" from-port="1" to-layer="151" to-port="0"/>
		<edge from-layer="151" from-port="3" to-layer="152" to-port="0"/>
		<edge from-layer="152" from-port="1" to-layer="153" to-port="0"/>
		<edge from-layer="153" from-port="3" to-layer="154" to-port="0"/>
		<edge from-layer="154" from-port="1" to-layer="155" to-port="0"/>
		<edge from-layer="155" from-port="3" to-layer="156" to-port="0"/>
		<edge from-layer="150" from-port="1" to-layer="156" to-port="1"/>
		<edge from-layer="156" from-port="2" to-layer="157" to-port="0"/>
		<edge from-layer="127" from-port="3" to-layer="158" to-port="0"/>
		<edge from-layer="157" from-port="1" to-layer="158" to-port="1"/>
		<edge from-layer="158" from-port="2" to-layer="159" to-port="0"/>
		<edge from-layer="159" from-port="1" to-layer="160" to-port="0"/>
		<edge from-layer="160" from-port="3" to-layer="161" to-port="0"/>
		<edge from-layer="161" from-port="1" to-layer="162" to-port="0"/>
		<edge from-layer="162" from-port="3" to-layer="163" to-port="0"/>
		<edge from-layer="163" from-port="1" to-layer="164" to-port="0"/>
		<edge from-layer="164" from-port="3" to-layer="165" to-port="0"/>
		<edge from-layer="159" from-port="1" to-layer="165" to-port="1"/>
		<edge from-layer="165" from-port="2" to-layer="166" to-port="0"/>
		<edge from-layer="166" from-port="1" to-layer="167" to-port="0"/>
		<edge from-layer="167" from-port="3" to-layer="168" to-port="0"/>
		<edge from-layer="168" from-port="1" to-layer="169" to-port="0"/>
		<edge from-layer="169" from-port="3" to-layer="170" to-port="0"/>
		<edge from-layer="170" from-port="1" to-layer="171" to-port="0"/>
		<edge from-layer="171" from-port="3" to-layer="172" to-port="0"/>
		<edge from-layer="166" from-port="1" to-layer="172" to-port="1"/>
		<edge from-layer="172" from-port="2" to-layer="173" to-port="0"/>
		<edge from-layer="173" from-port="1" to-layer="174" to-port="0"/>
		<edge from-layer="174" from-port="3" to-layer="175" to-port="0"/>
		<edge from-layer="175" from-port="1" to-layer="176" to-port="0"/>
		<edge from-layer="176" from-port="3" to-layer="177" to-port="0"/>
		<edge from-layer="177" from-port="1" to-layer="178" to-port="0"/>
		<edge from-layer="178" from-port="3" to-layer="179" to-port="0"/>
		<edge from-layer="173" from-port="1" to-layer="179" to-port="1"/>
		<edge from-layer="179" from-port="2" to-layer="180" to-port="0"/>
		<edge from-layer="180" from-port="1" to-layer="181" to-port="0"/>
		<edge from-layer="181" from-port="3" to-layer="182" to-port="0"/>
		<edge from-layer="182" from-port="1" to-layer="183" to-port="0"/>
		<edge from-layer="183" from-port="3" to-layer="184" to-port="0"/>
		<edge from-layer="184" from-port="1" to-layer="185" to-port="0"/>
		<edge from-layer="185" from-port="3" to-layer="186" to-port="0"/>
		<edge from-layer="180" from-port="1" to-layer="186" to-port="1"/>
		<edge from-layer="186" from-port="2" to-layer="187" to-port="0"/>
		<edge from-layer="187" from-port="1" to-layer="188" to-port="0"/>
		<edge from-layer="157" from-port="1" to-layer="189" to-port="0"/>
		<edge from-layer="189" from-port="3" to-layer="190" to-port="0"/>
		<edge from-layer="126" from-port="1" to-layer="190" to-port="1"/>
		<edge from-layer="190" from-port="2" to-layer="191" to-port="0"/>
		<edge from-layer="191" from-port="1" to-layer="192" to-port="0"/>
		<edge from-layer="192" from-port="3" to-layer="193" to-port="0"/>
		<edge from-layer="193" from-port="1" to-layer="194" to-port="0"/>
		<edge from-layer="194" from-port="3" to-layer="195" to-port="0"/>
		<edge from-layer="195" from-port="1" to-layer="196" to-port="0"/>
		<edge from-layer="196" from-port="3" to-layer="197" to-port="0"/>
		<edge from-layer="191" from-port="1" to-layer="197" to-port="1"/>
		<edge from-layer="197" from-port="2" to-layer="198" to-port="0"/>
		<edge from-layer="198" from-port="1" to-layer="199" to-port="0"/>
		<edge from-layer="199" from-port="3" to-layer="200" to-port="0"/>
		<edge from-layer="200" from-port="1" to-layer="201" to-port="0"/>
		<edge from-layer="201" from-port="3" to-layer="202" to-port="0"/>
		<edge from-layer="202" from-port="1" to-layer="203" to-port="0"/>
		<edge from-layer="203" from-port="3" to-layer="204" to-port="0"/>
		<edge from-layer="198" from-port="1" to-layer="204" to-port="1"/>
		<edge from-layer="204" from-port="2" to-layer="205" to-port="0"/>
		<edge from-layer="205" from-port="1" to-layer="206" to-port="0"/>
		<edge from-layer="206" from-port="3" to-layer="207" to-port="0"/>
		<edge from-layer="207" from-port="1" to-layer="208" to-port="0"/>
		<edge from-layer="208" from-port="3" to-layer="209" to-port="0"/>
		<edge from-layer="209" from-port="1" to-layer="210" to-port="0"/>
		<edge from-layer="210" from-port="3" to-layer="211" to-port="0"/>
		<edge from-layer="205" from-port="1" to-layer="211" to-port="1"/>
		<edge from-layer="211" from-port="2" to-layer="212" to-port="0"/>
		<edge from-layer="212" from-port="1" to-layer="213" to-port="0"/>
		<edge from-layer="213" from-port="3" to-layer="214" to-port="0"/>
		<edge from-layer="214" from-port="1" to-layer="215" to-port="0"/>
		<edge from-layer="215" from-port="3" to-layer="216" to-port="0"/>
		<edge from-layer="216" from-port="1" to-layer="217" to-port="0"/>
		<edge from-layer="217" from-port="3" to-layer="218" to-port="0"/>
		<edge from-layer="212" from-port="1" to-layer="218" to-port="1"/>
		<edge from-layer="218" from-port="2" to-layer="219" to-port="0"/>
		<edge from-layer="188" from-port="3" to-layer="220" to-port="0"/>
		<edge from-layer="219" from-port="1" to-layer="220" to-port="1"/>
		<edge from-layer="220" from-port="2" to-layer="221" to-port="0"/>
		<edge from-layer="221" from-port="1" to-layer="222" to-port="0"/>
		<edge from-layer="222" from-port="3" to-layer="223" to-port="0"/>
		<edge from-layer="223" from-port="1" to-layer="224" to-port="0"/>
		<edge from-layer="224" from-port="3" to-layer="225" to-port="0"/>
		<edge from-layer="225" from-port="1" to-layer="226" to-port="0"/>
		<edge from-layer="226" from-port="3" to-layer="227" to-port="0"/>
		<edge from-layer="221" from-port="1" to-layer="227" to-port="1"/>
		<edge from-layer="227" from-port="2" to-layer="228" to-port="0"/>
		<edge from-layer="228" from-port="1" to-layer="229" to-port="0"/>
		<edge from-layer="229" from-port="3" to-layer="230" to-port="0"/>
		<edge from-layer="230" from-port="1" to-layer="231" to-port="0"/>
		<edge from-layer="231" from-port="3" to-layer="232" to-port="0"/>
		<edge from-layer="232" from-port="1" to-layer="233" to-port="0"/>
		<edge from-layer="233" from-port="3" to-layer="234" to-port="0"/>
		<edge from-layer="228" from-port="1" to-layer="234" to-port="1"/>
		<edge from-layer="234" from-port="2" to-layer="235" to-port="0"/>
		<edge from-layer="235" from-port="1" to-layer="236" to-port="0"/>
		<edge from-layer="236" from-port="3" to-layer="237" to-port="0"/>
		<edge from-layer="237" from-port="1" to-layer="238" to-port="0"/>
		<edge from-layer="238" from-port="3" to-layer="239" to-port="0"/>
		<edge from-layer="239" from-port="1" to-layer="240" to-port="0"/>
		<edge from-layer="240" from-port="3" to-layer="241" to-port="0"/>
		<edge from-layer="235" from-port="1" to-layer="241" to-port="1"/>
		<edge from-layer="241" from-port="2" to-layer="242" to-port="0"/>
		<edge from-layer="242" from-port="1" to-layer="243" to-port="0"/>
		<edge from-layer="243" from-port="3" to-layer="244" to-port="0"/>
		<edge from-layer="244" from-port="1" to-layer="245" to-port="0"/>
		<edge from-layer="245" from-port="3" to-layer="246" to-port="0"/>
		<edge from-layer="246" from-port="3" to-layer="247" to-port="0"/>
		<edge from-layer="247" from-port="2" to-layer="248" to-port="0"/>
		<edge from-layer="248" from-port="3" to-layer="249" to-port="0"/>
		<edge from-layer="249" from-port="1" to-layer="250" to-port="0"/>
		<edge from-layer="250" from-port="3" to-layer="251" to-port="0"/>
		<edge from-layer="251" from-port="2" to-layer="252" to-port="0"/>
		<edge from-layer="242" from-port="1" to-layer="253" to-port="0"/>
		<edge from-layer="253" from-port="3" to-layer="254" to-port="0"/>
		<edge from-layer="254" from-port="1" to-layer="255" to-port="0"/>
		<edge from-layer="255" from-port="3" to-layer="256" to-port="0"/>
		<edge from-layer="256" from-port="1" to-layer="257" to-port="0"/>
		<edge from-layer="242" from-port="1" to-layer="258" to-port="0"/>
		<edge from-layer="258" from-port="1" to-layer="259" to-port="0"/>
		<edge from-layer="257" from-port="3" to-layer="260" to-port="0"/>
		<edge from-layer="259" from-port="3" to-layer="260" to-port="1"/>
		<edge from-layer="260" from-port="2" to-layer="261" to-port="0"/>
		<edge from-layer="261" from-port="1" to-layer="262" to-port="0"/>
		<edge from-layer="262" from-port="3" to-layer="263" to-port="0"/>
		<edge from-layer="263" from-port="1" to-layer="264" to-port="0"/>
		<edge from-layer="264" from-port="3" to-layer="265" to-port="0"/>
		<edge from-layer="265" from-port="1" to-layer="266" to-port="0"/>
		<edge from-layer="266" from-port="3" to-layer="267" to-port="0"/>
		<edge from-layer="261" from-port="1" to-layer="267" to-port="1"/>
		<edge from-layer="267" from-port="2" to-layer="268" to-port="0"/>
		<edge from-layer="268" from-port="1" to-layer="269" to-port="0"/>
		<edge from-layer="269" from-port="3" to-layer="270" to-port="0"/>
		<edge from-layer="270" from-port="1" to-layer="271" to-port="0"/>
		<edge from-layer="271" from-port="3" to-layer="272" to-port="0"/>
		<edge from-layer="272" from-port="1" to-layer="273" to-port="0"/>
		<edge from-layer="273" from-port="3" to-layer="274" to-port="0"/>
		<edge from-layer="268" from-port="1" to-layer="274" to-port="1"/>
		<edge from-layer="274" from-port="2" to-layer="275" to-port="0"/>
		<edge from-layer="275" from-port="1" to-layer="276" to-port="0"/>
		<edge from-layer="276" from-port="3" to-layer="277" to-port="0"/>
		<edge from-layer="277" from-port="1" to-layer="278" to-port="0"/>
		<edge from-layer="278" from-port="3" to-layer="279" to-port="0"/>
		<edge from-layer="279" from-port="1" to-layer="280" to-port="0"/>
		<edge from-layer="280" from-port="3" to-layer="281" to-port="0"/>
		<edge from-layer="275" from-port="1" to-layer="281" to-port="1"/>
		<edge from-layer="281" from-port="2" to-layer="282" to-port="0"/>
		<edge from-layer="282" from-port="1" to-layer="283" to-port="0"/>
		<edge from-layer="219" from-port="1" to-layer="284" to-port="0"/>
		<edge from-layer="284" from-port="3" to-layer="285" to-port="0"/>
		<edge from-layer="187" from-port="1" to-layer="285" to-port="1"/>
		<edge from-layer="285" from-port="2" to-layer="286" to-port="0"/>
		<edge from-layer="286" from-port="1" to-layer="287" to-port="0"/>
		<edge from-layer="287" from-port="3" to-layer="288" to-port="0"/>
		<edge from-layer="288" from-port="1" to-layer="289" to-port="0"/>
		<edge from-layer="289" from-port="3" to-layer="290" to-port="0"/>
		<edge from-layer="290" from-port="1" to-layer="291" to-port="0"/>
		<edge from-layer="291" from-port="3" to-layer="292" to-port="0"/>
		<edge from-layer="286" from-port="1" to-layer="292" to-port="1"/>
		<edge from-layer="292" from-port="2" to-layer="293" to-port="0"/>
		<edge from-layer="293" from-port="1" to-layer="294" to-port="0"/>
		<edge from-layer="294" from-port="3" to-layer="295" to-port="0"/>
		<edge from-layer="295" from-port="1" to-layer="296" to-port="0"/>
		<edge from-layer="296" from-port="3" to-layer="297" to-port="0"/>
		<edge from-layer="297" from-port="1" to-layer="298" to-port="0"/>
		<edge from-layer="298" from-port="3" to-layer="299" to-port="0"/>
		<edge from-layer="293" from-port="1" to-layer="299" to-port="1"/>
		<edge from-layer="299" from-port="2" to-layer="300" to-port="0"/>
		<edge from-layer="300" from-port="1" to-layer="301" to-port="0"/>
		<edge from-layer="301" from-port="3" to-layer="302" to-port="0"/>
		<edge from-layer="302" from-port="1" to-layer="303" to-port="0"/>
		<edge from-layer="303" from-port="3" to-layer="304" to-port="0"/>
		<edge from-layer="304" from-port="1" to-layer="305" to-port="0"/>
		<edge from-layer="305" from-port="3" to-layer="306" to-port="0"/>
		<edge from-layer="300" from-port="1" to-layer="306" to-port="1"/>
		<edge from-layer="306" from-port="2" to-layer="307" to-port="0"/>
		<edge from-layer="307" from-port="1" to-layer="308" to-port="0"/>
		<edge from-layer="308" from-port="3" to-layer="309" to-port="0"/>
		<edge from-layer="309" from-port="1" to-layer="310" to-port="0"/>
		<edge from-layer="310" from-port="3" to-layer="311" to-port="0"/>
		<edge from-layer="311" from-port="1" to-layer="312" to-port="0"/>
		<edge from-layer="307" from-port="1" to-layer="313" to-port="0"/>
		<edge from-layer="313" from-port="1" to-layer="314" to-port="0"/>
		<edge from-layer="312" from-port="3" to-layer="315" to-port="0"/>
		<edge from-layer="314" from-port="3" to-layer="315" to-port="1"/>
		<edge from-layer="315" from-port="2" to-layer="316" to-port="0"/>
		<edge from-layer="316" from-port="1" to-layer="317" to-port="0"/>
		<edge from-layer="317" from-port="3" to-layer="318" to-port="0"/>
		<edge from-layer="318" from-port="1" to-layer="319" to-port="0"/>
		<edge from-layer="319" from-port="3" to-layer="320" to-port="0"/>
		<edge from-layer="320" from-port="1" to-layer="321" to-port="0"/>
		<edge from-layer="321" from-port="3" to-layer="322" to-port="0"/>
		<edge from-layer="316" from-port="1" to-layer="322" to-port="1"/>
		<edge from-layer="322" from-port="2" to-layer="323" to-port="0"/>
		<edge from-layer="323" from-port="1" to-layer="324" to-port="0"/>
		<edge from-layer="324" from-port="3" to-layer="325" to-port="0"/>
		<edge from-layer="325" from-port="1" to-layer="326" to-port="0"/>
		<edge from-layer="326" from-port="3" to-layer="327" to-port="0"/>
		<edge from-layer="327" from-port="1" to-layer="328" to-port="0"/>
		<edge from-layer="328" from-port="3" to-layer="329" to-port="0"/>
		<edge from-layer="323" from-port="1" to-layer="329" to-port="1"/>
		<edge from-layer="329" from-port="2" to-layer="330" to-port="0"/>
		<edge from-layer="330" from-port="1" to-layer="331" to-port="0"/>
		<edge from-layer="331" from-port="3" to-layer="332" to-port="0"/>
		<edge from-layer="332" from-port="1" to-layer="333" to-port="0"/>
		<edge from-layer="333" from-port="3" to-layer="334" to-port="0"/>
		<edge from-layer="334" from-port="1" to-layer="335" to-port="0"/>
		<edge from-layer="335" from-port="3" to-layer="336" to-port="0"/>
		<edge from-layer="330" from-port="1" to-layer="336" to-port="1"/>
		<edge from-layer="336" from-port="2" to-layer="337" to-port="0"/>
		<edge from-layer="283" from-port="3" to-layer="338" to-port="0"/>
		<edge from-layer="337" from-port="1" to-layer="338" to-port="1"/>
		<edge from-layer="338" from-port="2" to-layer="339" to-port="0"/>
		<edge from-layer="339" from-port="1" to-layer="340" to-port="0"/>
		<edge from-layer="340" from-port="3" to-layer="341" to-port="0"/>
		<edge from-layer="341" from-port="1" to-layer="342" to-port="0"/>
		<edge from-layer="342" from-port="3" to-layer="343" to-port="0"/>
		<edge from-layer="343" from-port="1" to-layer="344" to-port="0"/>
		<edge from-layer="344" from-port="3" to-layer="345" to-port="0"/>
		<edge from-layer="339" from-port="1" to-layer="345" to-port="1"/>
		<edge from-layer="345" from-port="2" to-layer="346" to-port="0"/>
		<edge from-layer="346" from-port="1" to-layer="347" to-port="0"/>
		<edge from-layer="347" from-port="3" to-layer="348" to-port="0"/>
		<edge from-layer="348" from-port="1" to-layer="349" to-port="0"/>
		<edge from-layer="349" from-port="3" to-layer="350" to-port="0"/>
		<edge from-layer="350" from-port="1" to-layer="351" to-port="0"/>
		<edge from-layer="351" from-port="3" to-layer="352" to-port="0"/>
		<edge from-layer="346" from-port="1" to-layer="352" to-port="1"/>
		<edge from-layer="352" from-port="2" to-layer="353" to-port="0"/>
		<edge from-layer="353" from-port="1" to-layer="354" to-port="0"/>
		<edge from-layer="354" from-port="3" to-layer="355" to-port="0"/>
		<edge from-layer="355" from-port="1" to-layer="356" to-port="0"/>
		<edge from-layer="356" from-port="3" to-layer="357" to-port="0"/>
		<edge from-layer="357" from-port="1" to-layer="358" to-port="0"/>
		<edge from-layer="358" from-port="3" to-layer="359" to-port="0"/>
		<edge from-layer="353" from-port="1" to-layer="359" to-port="1"/>
		<edge from-layer="359" from-port="2" to-layer="360" to-port="0"/>
		<edge from-layer="360" from-port="1" to-layer="361" to-port="0"/>
		<edge from-layer="361" from-port="3" to-layer="362" to-port="0"/>
		<edge from-layer="362" from-port="1" to-layer="363" to-port="0"/>
		<edge from-layer="363" from-port="3" to-layer="364" to-port="0"/>
		<edge from-layer="364" from-port="1" to-layer="365" to-port="0"/>
		<edge from-layer="365" from-port="3" to-layer="366" to-port="0"/>
		<edge from-layer="360" from-port="1" to-layer="366" to-port="1"/>
		<edge from-layer="366" from-port="2" to-layer="367" to-port="0"/>
		<edge from-layer="367" from-port="1" to-layer="368" to-port="0"/>
		<edge from-layer="337" from-port="1" to-layer="369" to-port="0"/>
		<edge from-layer="369" from-port="3" to-layer="370" to-port="0"/>
		<edge from-layer="282" from-port="1" to-layer="370" to-port="1"/>
		<edge from-layer="370" from-port="2" to-layer="371" to-port="0"/>
		<edge from-layer="371" from-port="1" to-layer="372" to-port="0"/>
		<edge from-layer="372" from-port="3" to-layer="373" to-port="0"/>
		<edge from-layer="373" from-port="1" to-layer="374" to-port="0"/>
		<edge from-layer="374" from-port="3" to-layer="375" to-port="0"/>
		<edge from-layer="375" from-port="1" to-layer="376" to-port="0"/>
		<edge from-layer="376" from-port="3" to-layer="377" to-port="0"/>
		<edge from-layer="371" from-port="1" to-layer="377" to-port="1"/>
		<edge from-layer="377" from-port="2" to-layer="378" to-port="0"/>
		<edge from-layer="378" from-port="1" to-layer="379" to-port="0"/>
		<edge from-layer="379" from-port="3" to-layer="380" to-port="0"/>
		<edge from-layer="380" from-port="1" to-layer="381" to-port="0"/>
		<edge from-layer="381" from-port="3" to-layer="382" to-port="0"/>
		<edge from-layer="382" from-port="1" to-layer="383" to-port="0"/>
		<edge from-layer="383" from-port="3" to-layer="384" to-port="0"/>
		<edge from-layer="378" from-port="1" to-layer="384" to-port="1"/>
		<edge from-layer="384" from-port="2" to-layer="385" to-port="0"/>
		<edge from-layer="385" from-port="1" to-layer="386" to-port="0"/>
		<edge from-layer="386" from-port="3" to-layer="387" to-port="0"/>
		<edge from-layer="387" from-port="1" to-layer="388" to-port="0"/>
		<edge from-layer="388" from-port="3" to-layer="389" to-port="0"/>
		<edge from-layer="389" from-port="1" to-layer="390" to-port="0"/>
		<edge from-layer="390" from-port="3" to-layer="391" to-port="0"/>
		<edge from-layer="385" from-port="1" to-layer="391" to-port="1"/>
		<edge from-layer="391" from-port="2" to-layer="392" to-port="0"/>
		<edge from-layer="392" from-port="1" to-layer="393" to-port="0"/>
		<edge from-layer="393" from-port="3" to-layer="394" to-port="0"/>
		<edge from-layer="394" from-port="1" to-layer="395" to-port="0"/>
		<edge from-layer="395" from-port="3" to-layer="396" to-port="0"/>
		<edge from-layer="396" from-port="1" to-layer="397" to-port="0"/>
		<edge from-layer="397" from-port="3" to-layer="398" to-port="0"/>
		<edge from-layer="392" from-port="1" to-layer="398" to-port="1"/>
		<edge from-layer="398" from-port="2" to-layer="399" to-port="0"/>
		<edge from-layer="368" from-port="3" to-layer="400" to-port="0"/>
		<edge from-layer="399" from-port="1" to-layer="400" to-port="1"/>
		<edge from-layer="400" from-port="2" to-layer="401" to-port="0"/>
		<edge from-layer="401" from-port="1" to-layer="402" to-port="0"/>
		<edge from-layer="402" from-port="3" to-layer="403" to-port="0"/>
		<edge from-layer="403" from-port="1" to-layer="404" to-port="0"/>
		<edge from-layer="404" from-port="3" to-layer="405" to-port="0"/>
		<edge from-layer="405" from-port="1" to-layer="406" to-port="0"/>
		<edge from-layer="406" from-port="3" to-layer="407" to-port="0"/>
		<edge from-layer="401" from-port="1" to-layer="407" to-port="1"/>
		<edge from-layer="407" from-port="2" to-layer="408" to-port="0"/>
		<edge from-layer="408" from-port="1" to-layer="409" to-port="0"/>
		<edge from-layer="409" from-port="3" to-layer="410" to-port="0"/>
		<edge from-layer="410" from-port="1" to-layer="411" to-port="0"/>
		<edge from-layer="411" from-port="3" to-layer="412" to-port="0"/>
		<edge from-layer="412" from-port="1" to-layer="413" to-port="0"/>
		<edge from-layer="413" from-port="3" to-layer="414" to-port="0"/>
		<edge from-layer="408" from-port="1" to-layer="414" to-port="1"/>
		<edge from-layer="414" from-port="2" to-layer="415" to-port="0"/>
		<edge from-layer="415" from-port="1" to-layer="416" to-port="0"/>
		<edge from-layer="416" from-port="3" to-layer="417" to-port="0"/>
		<edge from-layer="417" from-port="1" to-layer="418" to-port="0"/>
		<edge from-layer="418" from-port="3" to-layer="419" to-port="0"/>
		<edge from-layer="419" from-port="1" to-layer="420" to-port="0"/>
		<edge from-layer="420" from-port="3" to-layer="421" to-port="0"/>
		<edge from-layer="415" from-port="1" to-layer="421" to-port="1"/>
		<edge from-layer="421" from-port="2" to-layer="422" to-port="0"/>
		<edge from-layer="422" from-port="1" to-layer="423" to-port="0"/>
		<edge from-layer="423" from-port="3" to-layer="424" to-port="0"/>
		<edge from-layer="424" from-port="1" to-layer="425" to-port="0"/>
		<edge from-layer="425" from-port="3" to-layer="426" to-port="0"/>
		<edge from-layer="426" from-port="1" to-layer="427" to-port="0"/>
		<edge from-layer="427" from-port="3" to-layer="428" to-port="0"/>
		<edge from-layer="422" from-port="1" to-layer="428" to-port="1"/>
		<edge from-layer="428" from-port="2" to-layer="429" to-port="0"/>
		<edge from-layer="429" from-port="1" to-layer="430" to-port="0"/>
		<edge from-layer="430" from-port="3" to-layer="431" to-port="0"/>
		<edge from-layer="431" from-port="1" to-layer="432" to-port="0"/>
		<edge from-layer="432" from-port="3" to-layer="433" to-port="0"/>
		<edge from-layer="433" from-port="3" to-layer="434" to-port="0"/>
		<edge from-layer="434" from-port="2" to-layer="435" to-port="0"/>
		<edge from-layer="435" from-port="3" to-layer="436" to-port="0"/>
		<edge from-layer="436" from-port="1" to-layer="437" to-port="0"/>
		<edge from-layer="437" from-port="3" to-layer="438" to-port="0"/>
		<edge from-layer="438" from-port="2" to-layer="439" to-port="0"/>
		<edge from-layer="432" from-port="3" to-layer="440" to-port="0"/>
		<edge from-layer="440" from-port="3" to-layer="441" to-port="0"/>
		<edge from-layer="441" from-port="2" to-layer="442" to-port="0"/>
		<edge from-layer="442" from-port="3" to-layer="443" to-port="0"/>
		<edge from-layer="443" from-port="1" to-layer="444" to-port="0"/>
		<edge from-layer="444" from-port="3" to-layer="445" to-port="0"/>
		<edge from-layer="445" from-port="2" to-layer="446" to-port="0"/>
		<edge from-layer="432" from-port="3" to-layer="447" to-port="0"/>
		<edge from-layer="447" from-port="3" to-layer="448" to-port="0"/>
		<edge from-layer="448" from-port="2" to-layer="449" to-port="0"/>
		<edge from-layer="449" from-port="3" to-layer="450" to-port="0"/>
		<edge from-layer="450" from-port="1" to-layer="451" to-port="0"/>
		<edge from-layer="451" from-port="3" to-layer="452" to-port="0"/>
		<edge from-layer="452" from-port="2" to-layer="453" to-port="0"/>
		<edge from-layer="432" from-port="3" to-layer="454" to-port="0"/>
		<edge from-layer="454" from-port="3" to-layer="455" to-port="0"/>
		<edge from-layer="455" from-port="2" to-layer="456" to-port="0"/>
		<edge from-layer="456" from-port="3" to-layer="457" to-port="0"/>
		<edge from-layer="457" from-port="1" to-layer="458" to-port="0"/>
		<edge from-layer="458" from-port="3" to-layer="459" to-port="0"/>
		<edge from-layer="459" from-port="2" to-layer="460" to-port="0"/>
		<edge from-layer="307" from-port="1" to-layer="461" to-port="0"/>
		<edge from-layer="461" from-port="3" to-layer="462" to-port="0"/>
		<edge from-layer="462" from-port="1" to-layer="463" to-port="0"/>
		<edge from-layer="463" from-port="3" to-layer="464" to-port="0"/>
		<edge from-layer="464" from-port="3" to-layer="465" to-port="0"/>
		<edge from-layer="465" from-port="1" to-layer="467" to-port="0"/>
		<edge from-layer="466" from-port="1" to-layer="467" to-port="1"/>
		<edge from-layer="399" from-port="1" to-layer="468" to-port="0"/>
		<edge from-layer="468" from-port="3" to-layer="469" to-port="0"/>
		<edge from-layer="367" from-port="1" to-layer="469" to-port="1"/>
		<edge from-layer="469" from-port="2" to-layer="470" to-port="0"/>
		<edge from-layer="470" from-port="1" to-layer="471" to-port="0"/>
		<edge from-layer="471" from-port="3" to-layer="472" to-port="0"/>
		<edge from-layer="472" from-port="1" to-layer="473" to-port="0"/>
		<edge from-layer="473" from-port="3" to-layer="474" to-port="0"/>
		<edge from-layer="474" from-port="1" to-layer="475" to-port="0"/>
		<edge from-layer="475" from-port="3" to-layer="476" to-port="0"/>
		<edge from-layer="470" from-port="1" to-layer="476" to-port="1"/>
		<edge from-layer="476" from-port="2" to-layer="477" to-port="0"/>
		<edge from-layer="477" from-port="1" to-layer="478" to-port="0"/>
		<edge from-layer="478" from-port="3" to-layer="479" to-port="0"/>
		<edge from-layer="479" from-port="1" to-layer="480" to-port="0"/>
		<edge from-layer="480" from-port="3" to-layer="481" to-port="0"/>
		<edge from-layer="481" from-port="1" to-layer="482" to-port="0"/>
		<edge from-layer="482" from-port="3" to-layer="483" to-port="0"/>
		<edge from-layer="477" from-port="1" to-layer="483" to-port="1"/>
		<edge from-layer="483" from-port="2" to-layer="484" to-port="0"/>
		<edge from-layer="484" from-port="1" to-layer="485" to-port="0"/>
		<edge from-layer="485" from-port="3" to-layer="486" to-port="0"/>
		<edge from-layer="486" from-port="1" to-layer="487" to-port="0"/>
		<edge from-layer="487" from-port="3" to-layer="488" to-port="0"/>
		<edge from-layer="488" from-port="1" to-layer="489" to-port="0"/>
		<edge from-layer="489" from-port="3" to-layer="490" to-port="0"/>
		<edge from-layer="484" from-port="1" to-layer="490" to-port="1"/>
		<edge from-layer="490" from-port="2" to-layer="491" to-port="0"/>
		<edge from-layer="491" from-port="1" to-layer="492" to-port="0"/>
		<edge from-layer="492" from-port="3" to-layer="493" to-port="0"/>
		<edge from-layer="493" from-port="1" to-layer="494" to-port="0"/>
		<edge from-layer="494" from-port="3" to-layer="495" to-port="0"/>
		<edge from-layer="495" from-port="1" to-layer="496" to-port="0"/>
		<edge from-layer="496" from-port="3" to-layer="497" to-port="0"/>
		<edge from-layer="491" from-port="1" to-layer="497" to-port="1"/>
		<edge from-layer="497" from-port="2" to-layer="498" to-port="0"/>
		<edge from-layer="498" from-port="1" to-layer="499" to-port="0"/>
		<edge from-layer="499" from-port="3" to-layer="500" to-port="0"/>
		<edge from-layer="500" from-port="1" to-layer="501" to-port="0"/>
		<edge from-layer="501" from-port="3" to-layer="502" to-port="0"/>
		<edge from-layer="502" from-port="3" to-layer="503" to-port="0"/>
		<edge from-layer="503" from-port="1" to-layer="505" to-port="0"/>
		<edge from-layer="504" from-port="1" to-layer="505" to-port="1"/>
		<edge from-layer="467" from-port="2" to-layer="506" to-port="0"/>
		<edge from-layer="505" from-port="2" to-layer="506" to-port="1"/>
		<edge from-layer="506" from-port="2" to-layer="507" to-port="0"/>
		<edge from-layer="307" from-port="1" to-layer="508" to-port="0"/>
		<edge from-layer="508" from-port="3" to-layer="509" to-port="0"/>
		<edge from-layer="509" from-port="1" to-layer="510" to-port="0"/>
		<edge from-layer="510" from-port="3" to-layer="511" to-port="0"/>
		<edge from-layer="511" from-port="3" to-layer="512" to-port="0"/>
		<edge from-layer="512" from-port="1" to-layer="514" to-port="0"/>
		<edge from-layer="513" from-port="1" to-layer="514" to-port="1"/>
		<edge from-layer="498" from-port="1" to-layer="515" to-port="0"/>
		<edge from-layer="515" from-port="3" to-layer="516" to-port="0"/>
		<edge from-layer="516" from-port="1" to-layer="517" to-port="0"/>
		<edge from-layer="517" from-port="3" to-layer="518" to-port="0"/>
		<edge from-layer="518" from-port="3" to-layer="519" to-port="0"/>
		<edge from-layer="519" from-port="1" to-layer="521" to-port="0"/>
		<edge from-layer="520" from-port="1" to-layer="521" to-port="1"/>
		<edge from-layer="514" from-port="2" to-layer="522" to-port="0"/>
		<edge from-layer="521" from-port="2" to-layer="522" to-port="1"/>
	</edges>
	<meta_data>
		<MO_version value="2019.2.0-402-g82c4801"/>
		<cli_parameters>
			<blobs_as_inputs value="False"/>
			<caffe_parser_path value="DIR"/>
			<data_type value="FP32"/>
			<disable_nhwc_to_nchw value="False"/>
			<disable_omitting_optional value="False"/>
			<disable_resnet_optimization value="False"/>
			<enable_concat_optimization value="False"/>
			<enable_flattening_nested_params value="False"/>
			<enable_ssd_gluoncv value="False"/>
			<extensions value="DIR"/>
			<framework value="tf"/>
			<freeze_placeholder_with_value value="{}"/>
			<generate_experimental_IR_V10 value="False"/>
			<input value="input"/>
			<input_model value="DIR/model_frozen.pb"/>
			<input_model_is_text value="False"/>
			<input_shape value="[1,400,680,3]"/>
			<k value="DIR/CustomLayersMapping.xml"/>
			<keep_quantize_ops_in_IR value="False"/>
			<keep_shape_ops value="False"/>
			<legacy_mxnet_model value="False"/>
			<log_level value="ERROR"/>
			<mean_scale_values value="{}"/>
			<mean_values value="()"/>
			<model_name value="person-detection-action-recognition-0006"/>
			<move_to_preprocess value="False"/>
			<output value="['ActionNet/out_detection_loc', 'ActionNet/out_detection_conf', 'ActionNet/action_heads/out_head_1_anchor_1', 'ActionNet/action_heads/out_head_2_anchor_1', 'ActionNet/action_heads/out_head_2_anchor_2', 'ActionNet/action_heads/out_head_2_anchor_3', 'ActionNet/action_heads/out_head_2_anchor_4']"/>
			<output_dir value="DIR"/>
			<placeholder_shapes value="{'input': array([  1, 400, 680,   3])}"/>
			<remove_output_softmax value="False"/>
			<reverse_input_channels value="False"/>
			<save_params_from_nd value="False"/>
			<scale_values value="()"/>
			<silent value="False"/>
			<version value="False"/>
			<unset unset_cli_parameters="batch, counts, disable_fusing, disable_gfusing, finegrain_fusing, generate_deprecated_IR_V2, input_checkpoint, input_meta_graph, input_proto, input_symbol, mean_file, mean_file_offsets, nd_prefix_name, pretrained_model_name, saved_model_dir, saved_model_tags, scale, tensorboard_logdir, tensorflow_custom_layer_libraries, tensorflow_custom_operations_config_update, tensorflow_object_detection_api_pipeline_config, tensorflow_operation_patterns, tensorflow_subgraph_patterns, tensorflow_use_custom_operations_config"/>
		</cli_parameters>
	</meta_data>
</net>
